src/model/model.pth (torch, 112268 bytes, 26 tensors)

encoder.conv1.weight f4 [2, 10, 2]
000000 ba 65 de 3e 58 cf 82 3e 36 41 dc 3e ca b8 81 3e
       0.43436986 0.25548816 0.43018502 0.25336295
000010 a3 d9 ee 3e 05 ca 66 3e eb 9d dd 3e c2 06 91 3e
       0.4665042 0.22538002 0.43284544 0.28325468
000020 d3 4c de 3e 8c c6 87 3e c7 38 e3 3e 77 04 88 3e
       0.43417987 0.26518667 0.44379255 0.26565906
000030 9b 68 ea 3e 31 6e 8d 3e 6b 8f e3 3e f9 03 88 3e
       0.45782933 0.27623132 0.44445357 0.2656553
000040 27 f8 04 bf a9 52 98 3e 8c be 13 bf 2c 2a 68 be
       -0.5194115 0.29750565 -0.57712626 -0.22672337
000050 44 bb e2 be 6e 61 09 bf 12 44 2f be 99 67 09 bf
       -0.44283497 -0.5366429 -0.1711581 -0.536737
000060 24 98 a2 be 90 fd 16 bf f8 e3 d3 be 6d 8f 26 bf
       -0.317567 -0.58980656 -0.41384864 -0.650626
000070 99 b4 b9 be f9 c6 0d bf 40 32 90 be b3 40 22 bf
       -0.36270598 -0.55381733 -0.28163338 -0.63379973
000080 95 ee 8a bf 6f 12 25 bf ef 70 b3 3e d0 68 08 bf
       -1.085406 -0.6448125 0.350471 -0.5328493
000090 7b 8a 18 3f 6b ac ce 3e 7e b0 96 be 8c 52 46 bc
       0.59586304 0.4036592 -0.29431528 -0.012104642

encoder.conv1.bias f4 [2]
000000 80 73 f9 3e a5 27 f6 3d
       0.48720932 0.1201928

encoder.conv2.weight f4 [3, 2, 3]
000000 9a b5 c5 bc 87 3f 19 bf 7f c3 10 3f 4b 66 88 be
       -0.024134446 -0.5986256 0.56548303 -0.26640543
000010 7e a7 f4 3e 8f 5e 19 bf 84 2a 2e be 10 8f 34 3f
       0.47784036 -0.5990991 -0.17008406 0.70530796
000020 72 8f 33 3e 08 46 87 3e 3f fe 98 bf f1 03 6b 3e
       0.17535189 0.26420617 -1.195259 0.22950722
000030 16 41 85 be 17 9b 4c be 24 4a 5e b9 8d 51 09 3f
       -0.2602622 -0.19981037 -0.0002119919 0.5364006
000040 24 91 0e 3f 3d 61 bc 3d
       0.55690217 0.09198234

encoder.conv2.bias f4 [3]
000000 36 88 a5 3e 41 d6 09 be 9c 99 85 3d
       0.32330483 -0.13460638 0.06523439

encoder.conv3.weight f4 [4, 3, 4]
000000 63 0f 91 3e 28 49 b2 3e 90 1e 64 3d 09 d3 87 be
       0.28332052 0.3482144 0.05569321 -0.26528195
000010 48 68 82 bf 33 0e a0 3d a5 2f 64 3d fc 99 9b 3d
       -1.0188074 0.07815208 0.0557095 0.075977296
000020 50 66 a0 3f b6 1d c8 bf d3 79 22 bf a3 b5 09 3f
       1.2531223 -1.5634067 -0.6346714 0.5379278
000030 49 13 1b 3e 8b 56 81 bf 97 04 1a bd 46 7d 60 bf
       0.15144075 -1.0104536 -0.037602033 -0.8769115
000040 a9 41 1f 3f 6a eb 80 3d 33 7d 9b 3e 51 9e 11 c0
       0.62209564 0.06294902 0.30368957 -2.2752879
000050 99 8b db bd 80 65 c4 3e cb 75 c5 3e 49 55 a5 3d
       -0.107199855 0.38358688 0.3856643 0.080729075
000060 9f dc b1 bf 26 78 00 3c fa 98 b7 be 68 06 27 be
       -1.3895453 0.007841146 -0.358589 -0.16311038
000070 39 b8 a8 3f 02 0f 14 bf bc 1c 4c 3e 85 3e 01 3d
       1.318122 -0.578354 0.19932836 0.031553764
000080 5a 25 a9 be 79 6b 27 be 81 22 db bf bd 5d 33 be
       -0.3303631 -0.16349591 -1.7119905 -0.17516227
000090 3c a8 7c 3e a6 df 07 3e be 84 ff 3b 70 15 59 bc
       0.24673551 0.13268909 0.0077978065 -0.01324974
0000a0 42 5a 2d 3e d6 df 8f 3e 79 e9 19 3e 91 7a e4 3d
       0.16928962 0.2810046 0.15030469 0.1115619
0000b0 3a 5a 08 3e cf 50 54 bf 3f 20 2c 3d af 1d 9c 3e
       0.13315669 -0.82935804 0.04202294 0.30491397

encoder.conv3.bias f4 [4]
000000 ef fc b9 3e a1 40 2a bf ad 25 35 bf 24 d9 26 be
       0.36325786 -0.66504866 -0.70760614 -0.1629377

encoder.linear.weight f4 [20, 36]
000000 6f 96 9a 3c 08 29 a4 3d b0 ec f4 3c c0 8f 08 3a
       0.01887056 0.080156386 0.029898018 0.00052094087
000010 f8 0d 8a 3d 87 bf 41 3e 18 21 92 3e 02 28 03 3f
       0.067409456 0.18920718 0.28540874 0.5123292
000020 0c 79 8f 3f 68 b3 1a 3d da fc 29 3c 7d a9 04 be
       1.1208816 0.03776875 0.010375226 -0.1295528
000030 fe 39 06 be c8 94 6d 3d 66 1e 48 3e 2a 07 1c 3e
       -0.1310806 0.058003217 0.19542846 0.15237108
000040 75 9b ac 3b 33 31 63 be 5d 15 5d 3d 39 68 10 3f
       0.0052675554 -0.22186737 0.05397545 0.5640903
000050 f0 b1 0b 3f 80 da 97 3e 33 fc 7e 3d 9f 18 9d be
       0.54568386 0.2965889 0.062252235 -0.30682847
000060 2d 6a bd be 89 c4 e4 be b4 d5 93 3e 97 89 1b 3f
       -0.36995068 -0.44681194 0.2887398 0.6075682
000070 c6 3d 11 3f 37 03 29 3f d4 72 21 3f 25 e2 21 3f
       0.56734884 0.6602053 0.6306584 0.63235694
000080 a5 2b 32 3f ea cb 59 3f 3e 85 73 3f 07 d7 90 3f
       0.69597846 0.85076773 0.95125186 1.1315621
000090 4d b9 2c 3f 52 0d 1d bf f9 19 f9 3c be d8 61 be
       0.67470247 -0.6134845 0.030407893 -0.22055337
0000a0 da 03 9e bd 05 4c dc be 78 d2 f5 be 50 7c 63 bf
       -0.077155784 -0.43026748 -0.48012137 -0.8886156
0000b0 7a bb c5 be 2d fb 00 40 ef cc 8c 3d 2f f7 da be
       -0.38619596 2.0153306 0.068750255 -0.4276671
0000c0 9f 40 63 be fa 85 d9 3e 6b db 2c 3e f2 67 35 3e
       -0.2219262 0.42485029 0.16880576 0.17715433
0000d0 c2 05 a2 bb be 87 63 be 8c ac 8b bf 31 2f 94 3f
       -0.004944534 -0.2221975 -1.0912032 1.1576902
0000e0 1f 38 e7 3e 1e 6a 81 3f d7 fe 15 be f4 23 ee 3e
       0.45160004 1.0110509 -0.14647995 0.46511805
0000f0 63 81 35 be 09 d1 95 bd 25 d4 86 3d b5 36 50 3f
       -0.17725138 -0.07315261 0.06583432 0.81333476
000100 e2 c9 81 be ac 58 10 3c e4 5c 0b bf 1e e5 08 bf
       -0.25349337 0.0088102035 -0.54438615 -0.53474605
000110 a0 4b 91 be 8a 00 c2 be 29 47 8a bf c1 fc 77 bf
       -0.2837801 -0.37891036 -1.0802966 -0.96870047
000120 ac d6 57 3f e4 2d 5f 3f 6d 8b 59 bf 4d fe ad be
       0.8431194 0.871794 -0.8497837 -0.3398308
000130 51 43 e7 be 38 4e 50 be 16 7e c8 bd 13 a2 83 be
       -0.45168546 -0.20342338 -0.09789674 -0.2570959
000140 08 e8 84 be e0 26 ae 3f 18 f5 16 3b d6 f3 a5 be
       -0.25958276 1.3605614 0.002303427 -0.32412595
000150 78 65 fe be 91 34 8b bd a7 f9 c3 3d 62 5c dc 3d
       -0.4968679 -0.067971356 0.09569102 0.10759808
000160 c4 0d 78 bc d3 15 e1 3d 9c 60 84 bf 92 a5 97 bf
       -0.015140001 0.10990491 -1.0341983 -1.1847403
000170 4e 96 a0 3f bc fe 80 3f 3e a7 a8 3f d6 f1 3b bf
       1.2545869 1.0077739 1.3176038 -0.7341589
000180 74 cc 5c bf 96 7e 27 bf 08 37 56 bc 71 00 c3 3e
       -0.8624947 -0.6542753 -0.013074644 0.38086274
000190 58 e4 96 3d 8b 7a 2a 3e 84 e6 c2 3d 1b 04 87 be
       0.07367772 0.16648309 0.095166236 -0.2637032
0001a0 72 fe 89 be ec 10 a2 be 97 80 c1 be 15 77 75 be
       -0.2695194 -0.31653535 -0.3779342 -0.23971207
0001b0 9b 82 39 3e cd 61 22 3f a0 6b 35 3f 1c 0f 62 3f
       0.18116228 0.6343048 0.7086735 0.88304305
0001c0 be ef 89 bd 00 df d0 3d 96 48 7c bd 33 3c 74 be
       -0.0673518 0.10198784 -0.06159266 -0.23851089
0001d0 2c 78 d8 be 3a f6 bf 3e f5 ff e7 be dd 1c 84 3e
       -0.42279184 0.37492543 -0.45312467 0.2580327
0001e0 a5 79 86 3e f6 3c 0a 3e 09 e4 46 3d ad 6f c9 bd
       0.26264682 0.13499817 0.048557315 -0.098357536
0001f0 69 09 16 bd ff ce bb bc 94 21 83 bf 6b 5b d6 bf
       -0.036630068 -0.022925852 -1.0244622 -1.6746649
000200 bb 7c 49 bf f4 72 77 bf 12 d1 ae bf ac 16 22 bf
       -0.7870595 -0.9665978 -1.3657553 -0.63315845
000210 f6 42 ce be 8d f3 00 bf d5 09 b9 be f6 a7 3d bf
       -0.40285462 -0.5037163 -0.36140314 -0.74084413
000220 8c ce d3 bd 4f 70 38 3d 5f 59 b1 3d 6b 0d 92 3e
       -0.1034213 0.04502898 0.08659624 0.28525862
000230 33 38 bb 3e 62 99 16 3f d1 d2 10 3f 7e 25 04 3f
       0.36566314 0.58827794 0.5657168 0.5161971
000240 36 a5 9b 3e 93 c5 28 3f f0 a2 6c 3e 17 06 1c be
       0.30399483 0.65926474 0.2310903 -0.15236698
000250 72 59 9c be e2 03 21 bf c8 90 55 bf 41 3a d3 bf
       -0.3053699 -0.6289655 -0.83424044 -1.6502153
000260 68 70 28 bf 96 66 2a be e7 b0 b6 3f 14 1e c1 3f
       -0.6579652 -0.16640696 1.4272736 1.5087304
000270 d8 6e 01 3f 9c 87 31 3e a0 43 59 3d cd 7f 17 3d
       0.5055976 0.17336887 0.053043008 0.036987115
000280 67 c4 8b be 73 73 29 bf b2 6a e5 be 65 08 85 bd
       -0.2729828 -0.66191787 -0.44807965 -0.06495742
000290 03 b9 6c 3c f8 2b 04 be 58 2b 81 be c0 95 80 3e
       0.014448407 -0.12907398 -0.2522838 0.2511425
0002a0 44 10 47 3d 73 e6 bc 3e ec d9 e3 3d 97 67 ea 3e
       0.048599496 0.3689457 0.1112555 0.45782158
0002b0 15 6d af 3d e1 8b 77 3e 8c ce ab bd b7 0d 4f be
       0.085657276 0.24174453 -0.08389005 -0.20220076
0002c0 68 d6 88 be 76 ee 44 be 47 0f 2a bf ac b4 09 bf
       -0.2672608 -0.1923159 -0.6642956 -0.5379131
0002d0 22 cf 13 3d a6 ef d6 3d 28 ca c0 3e 92 8a f3 3e
       0.03608621 0.10494928 0.37654233 0.47566658
0002e0 c8 0a 9c 3e c2 26 5c bd 3d ed 9a be e3 9f 5d 3e
       0.30476975 -0.0537479 -0.30259123 0.21643023
0002f0 b9 d0 c5 3f 88 2a 17 bf c3 3a af bf 38 ec 8f 3e
       1.5454322 -0.5904927 -1.3689808 0.28109908
000300 48 8f 3c bf 37 b9 0b bf d7 c4 9e bf 9c 37 a6 bf
       -0.7365613 -0.5457949 -1.2403821 -1.2985721
000310 34 c1 8a bf ec 25 35 bf ba f5 2f bc f6 a7 41 3e
       -1.0840211 -0.7076099 -0.010739738 0.18911728
000320 b5 e6 43 3d 35 f2 5f be ef df bf bd f8 63 50 bd
       0.04782744 -0.21869738 -0.09368884 -0.050876588
000330 ac ba ea 3e a9 0f 07 3e b7 77 00 3d e5 fa be 3e
       0.45845544 0.13189568 0.03136417 0.37300792
000340 d4 02 24 3f ca 6d 49 3e 34 87 5e 3d 2e 24 cf 3d
       0.64066815 0.19670787 0.05432816 0.101143226
000350 fb 83 96 bd 7a 5f 41 be b6 4e 7a 3e 2b 8b 26 3e
       -0.07349392 -0.18884078 0.24444088 0.16264026
000360 40 41 2b be 38 0f 81 3d 2e 4b d8 bb 07 40 20 be
       -0.1672411 0.06301731 -0.006600759 -0.15649424
000370 ab 1f 0c bc f6 95 99 3c 53 28 ae 3d 96 95 10 bc
       -0.008552472 0.018748265 0.08503785 -0.008824727
000380 cb d6 f3 bc ab 56 86 3a 92 b3 00 be db ad 64 bd
       -0.029765507 0.0010249218 -0.125685 -0.055829864
000390 96 17 61 be c7 2d 13 bd 53 34 34 bd 6e b2 bc 3d
       -0.21981654 -0.03593233 -0.043995213 0.0921372
0003a0 0c c9 b4 bd 07 9e ac bd 66 30 d4 bd e7 fd 28 be
       -0.08827409 -0.08428579 -0.10360794 -0.16503106
0003b0 32 c2 20 be 00 74 bd 3b d3 cb a7 3d 20 7b 46 bd
       -0.1569908 0.0057816505 0.08193173 -0.048457265
0003c0 53 d8 d8 3d 20 7a d7 3c ce f6 ab bd a2 fa 63 3d
       0.105881356 0.02630335 -0.08396684 0.055658944
0003d0 82 f2 2d be 77 c3 71 bb 7f f6 da 3d 47 41 59 bc
       -0.1698704 -0.0036890188 0.10691547 -0.013260192
0003e0 c0 76 8c 3d fb 55 ab bd b6 db b5 bc 76 ab 12 be
       0.06858587 -0.08366009 -0.022199493 -0.1432322
0003f0 33 72 5c 3d ca e1 c4 3d 17 1c e0 bd 48 6b ec be
       0.053819846 0.09613378 -0.10942858 -0.461756

encoder.linear.bias f4 [20]
000000 a2 c2 27 be 17 41 73 3e ed 03 29 3e c2 5c 61 3e
       -0.1638284 0.23755299 0.16505404 0.2200804
000010 b4 c3 97 3e 19 7c c8 3e b6 6d 57 be 6d 3c 01 bf
       0.29641497 0.3915718 -0.21037945 -0.5048283
000020 46 99 2c 3e ed a6 f3 3e 1a 67 1d be 77 c9 ea 3e
       0.16855344 0.47588292 -0.15371361 0.4585683
000030 90 92 52 be 28 cc 09 be e9 c2 e8 bd 8a 3a 47 3e
       -0.20563722 -0.13456786 -0.11365301 0.19455925
000040 e0 ca 6f be 24 4b a8 bd 28 b3 0b be 91 6e 63 be
       -0.23417234 -0.08217457 -0.13642561 -0.22210146

encoder.mu.weight f4 [4, 20]
000000 95 50 f9 3e c2 76 85 be a6 fa b3 bd 3e f4 b0 3e
       0.48694292 -0.26067168 -0.08788042 0.34561342
000010 cc 10 a1 3d 33 d6 a5 be 42 07 08 be 6d 0f fc bd
       0.07864532 -0.32389984 -0.13284019 -0.1230763
000020 1b 58 33 be 71 87 b0 3d 63 2f 34 be 63 7d 7d bf
       -0.17514078 0.086195834 -0.17596202 -0.9901945
000030 83 9d 81 3a bd e5 a1 bc 6b 9d 91 3e b1 e5 6e 3e
       0.0009888861 -0.019762868 0.28440413 0.23329808
000040 92 13 dc 3c 2d 48 08 3e 22 01 09 3e 1e 8a 98 bd
       0.0268648 0.13308783 0.13379338 -0.07448219
000050 3a ae 5b 3e a1 a7 fc bd b4 7b 09 be ec e0 ee 3c
       0.21453181 -0.1233666 -0.13426095 0.029159985
000060 a6 81 01 bf 65 df 82 3e ac b9 fd bc 75 11 9d 3d
       -0.5058845 0.25561062 -0.030972324 0.07669345
000070 cf c6 d9 3c cb 86 6f 3d 03 eb 06 3e d4 a6 e7 3e
       0.026584057 0.058478158 0.13175587 0.45244467
000080 3f eb a2 bd a4 66 26 be 42 4b b8 be e9 0a 71 3e
       -0.07955026 -0.16250092 -0.35994917 0.23539318
000090 c2 9c aa 3d 3e 31 94 3d c7 3f c6 bc b4 96 47 be
       0.083306804 0.07235955 -0.024200333 -0.19491082
0000a0 b3 53 a8 3e 02 01 b0 be a6 9c e7 be 81 18 81 be
       0.32876357 -0.3437577 -0.452367 -0.25214007
0000b0 88 b8 15 bd 5a 37 8d be e2 d1 64 be e1 db 6a 3d
       -0.036552936 -0.27581292 -0.22345689 0.0573386
0000c0 e1 1a 52 3f 11 fb 38 bf 70 29 d4 3c db 2a 99 be
       0.82072264 -0.72258097 0.025898665 -0.2991551
0000d0 32 9a f9 bc 46 6c fa 3b 36 d4 d5 3c 44 df 4a 3e
       -0.030469034 0.0076423017 0.026102167 0.19811732
0000e0 a1 04 97 3e fc 53 0b bd f3 fc ef 3d 01 c6 07 3e
       0.2949572 -0.03401564 0.11718168 0.13259126
0000f0 39 59 10 3f 60 32 12 3f 33 e0 dd 3e 5f 09 04 bf
       0.5638614 0.57108116 0.43335113 -0.515768
000100 89 68 80 bb 73 66 24 bb 86 6a 95 bd fa 20 41 be
       -0.0039187116 -0.0025085479 -0.07295708 -0.18860236
000110 e0 1c 69 3b 6a 09 ad 3d 1e e3 38 bd cb d7 d4 be
       0.003557019 0.08449061 -0.04513847 -0.41570887
000120 d2 a5 f0 bc 1b eb 0a be 1e 09 6b be 15 35 1d bf
       -0.029375944 -0.13566248 -0.22952697 -0.6140912
000130 eb bb 07 38 03 28 34 be a0 20 9a 3a 22 23 c7 bb
       3.236152e-05 -0.17593388 0.0011758991 -0.006077186

encoder.mu.bias f4 [4]
000000 d9 03 a5 be 19 dd af bd 31 f5 3b be cf 26 e6 be
       -0.32229498 -0.08587093 -0.18355252 -0.44951484

encoder.sigma.weight f4 [4, 20]
000000 9f c9 79 c0 0d 82 10 c0 82 a6 4f c0 9c c4 4c c0
       -3.902931 -2.2579377 -3.2445378 -3.1995
000010 35 db 5b c0 0c 58 95 bf 89 88 2c 3e ee 33 0f be
       -3.4352543 -1.1667495 0.16848959 -0.13984653
000020 01 2b 46 c0 0d 02 33 c0 56 5b 31 3e 91 2b ac bf
       -3.0963748 -2.7970002 0.17319998 -1.3450795
000030 08 33 fb bc ab cd 48 3e 08 a0 8c c0 6e f0 1f c0
       -0.030663982 0.19609706 -4.394535 -2.4990497
000040 86 e8 34 be 22 14 a6 bd 84 62 1a 3e 4f 3d 05 be
       -0.17666826 -0.08109309 0.15076643 -0.13011669
000050 c5 96 75 c0 73 c4 1b bf dd f8 1e c0 c2 56 45 c0
       -3.8373272 -0.6084663 -2.4839394 -3.0834203
000060 8c bb 15 c0 25 4c d3 bf 49 96 c2 bc bf a7 e7 3d
       -2.339572 -1.6507612 -0.023753302 0.11311292
000070 dd bc 22 c0 d1 08 51 c0 8e bb d3 bc 21 39 03 bf
       -2.5427773 -3.266163 -0.025846269 -0.51259047
000080 09 fe fc 3d 70 d4 8a be af 8d 70 c0 89 e8 38 c0
       0.12353141 -0.27115202 -3.7586477 -2.8891928
000090 74 a8 43 3e 5e 19 df 3d 13 77 ce bd 38 30 1b bd
       0.19107229 0.1089351 -0.10081305 -0.03788778
0000a0 8f 66 66 c0 58 6b 00 c0 cc 61 46 c0 45 99 29 c0
       -3.6000097 -2.0065517 -3.099719 -2.6499798
0000b0 d2 90 2d c0 07 16 c2 bf 92 c2 66 bd d0 d0 22 be
       -2.7119641 -1.5162972 -0.0563379 -0.15899968
0000c0 90 f4 24 c0 3d 6a 2a c0 f6 da c4 bd 5d 16 41 bf
       -2.577427 -2.6627343 -0.09612076 -0.7542475
0000d0 6e d1 c5 bd 72 e8 53 be e8 9f 65 c0 fc aa 1e c0
       -0.09659086 -0.2069414 -3.587885 -2.479186
0000e0 ac e3 a6 3d a4 b6 9a be a2 d2 b9 3c a6 b4 83 bd
       0.08148894 -0.3021747 0.022683445 -0.0643094
0000f0 f9 48 7d c0 c4 ba b5 bf e8 31 17 c0 e2 37 4c c0
       -3.957579 -1.4197621 -2.362421 -3.1909108
000100 af 11 1a c0 a3 ca fa bf 8e 39 07 be 24 1b 09 be
       -2.4073293 -1.959309 -0.13205549 -0.1338926
000110 65 23 23 c0 da 9e 01 c0 5b f6 ca 3d 7b 3d 8a bf
       -2.5490353 -2.0253205 0.0991027 -1.0800012
000120 91 21 78 be 99 b5 90 bb 44 e4 51 c0 db 85 24 c0
       -0.24231555 -0.0044161794 -3.2795572 -2.57067
000130 14 df 26 3e 49 d0 95 bd e8 e0 59 3e 46 03 b8 3d
       0.16296035 -0.07315118 0.21277201 0.08984999

encoder.sigma.bias f4 [4]
000000 4c 74 60 c0 61 f5 5d c0 db 17 3c c0 3c 07 4b c0
       -3.5070982 -3.4681017 -2.938956 -3.1723166

decoder.linear_in.weight f4 [20, 4]
000000 ce 15 79 bf ad 8c be 3e a6 78 22 bf e8 b4 b5 bd
       -0.97298896 0.37216702 -0.63465345 -0.08872396
000010 00 a2 b7 be e9 03 ca 3d 9f 3f 20 be db 18 3f be
       -0.35865784 0.09864027 -0.1564927 -0.18661825
000020 51 26 3e 3f 8d 82 a6 bd c7 0b cb 3e 2c fe 18 3f
       0.74277216 -0.08130369 0.39657423 0.59762836
000030 58 e7 28 be f1 73 e0 3d bb 11 00 be 15 7a a4 bd
       -0.164945 0.10959614 -0.12506764 -0.08031098
000040 08 67 a2 be ea ff 1c 3e 83 27 51 be e8 44 f2 3c
       -0.31719232 0.15331998 -0.20425229 0.029573873
000050 4a 15 a0 3d 7c 26 03 3e 68 4f f8 3a 95 f7 b0 3b
       0.078165606 0.1280765 0.0018944563 0.005400608
000060 1f 0f 32 be 17 0b 7e 3e 4c cc bc 3c 13 40 49 3b
       -0.1738858 0.24808918 0.023046635 0.0030708357
000070 55 87 48 bf 95 a7 9e be 3e 99 86 3e a8 c2 2b 3f
       -0.783315 -0.3098723 0.2628879 0.67093897
000080 d5 74 a6 bf 20 bb 9e 3d 83 93 b4 be 11 07 07 3f
       -1.3004404 0.07750535 -0.35268793 0.5274516
000090 ca b2 00 3e 80 ba a9 3d 46 06 0e 3f b5 cb aa 3d
       0.12568203 0.08287525 0.5547832 0.08339635
0000a0 af fd 06 be 75 6b a0 3e 69 1e b8 be c5 ff 72 3e
       -0.1318271 0.31331983 -0.359607 0.23730381
0000b0 6e f7 26 3f 6b fc 71 3e 9f 93 9d be 36 1b 29 bf
       0.652213 0.23631446 -0.30776688 -0.66057146
0000c0 7b df 71 be 19 57 a3 3d b3 e4 b4 3d 7a 4b 26 be
       -0.23620407 0.07975597 0.088326834 -0.1623973
0000d0 75 3b 91 bf 47 3f 0a 3f b7 bb 13 bf a5 2f 9d 3b
       -1.134627 0.54002804 -0.57708305 0.0047969394
0000e0 7e b0 a5 3e 3d 58 57 bf 4f 0b 49 3e 93 b4 04 bd
       0.32361215 -0.84119016 0.1963322 -0.03239877
0000f0 f3 17 38 bf 3c ef 61 3e e5 28 24 be b5 50 85 bd
       -0.71911544 0.22063917 -0.16031225 -0.06509534
000100 5a 2e c4 3e 81 23 bd be 31 57 06 bf d5 89 fe 3e
       0.38316613 -0.3694115 -0.52476794 0.49714532
000110 30 81 ce be ec 1b 3f 3e 23 78 bd be fe 45 64 be
       -0.40332937 0.18662995 -0.3700572 -0.22292325
000120 73 9f 88 be fc 4d ee 3e f5 d5 cf 3c 5f 66 a2 3d
       -0.2668415 0.46543872 0.025370577 0.07929682
000130 6a fc 9f bf 7b 5f 8e be d6 10 3b bc 9e 7a 5a bf
       -1.2498906 -0.2780722 -0.011417588 -0.8534335

decoder.linear_in.bias f4 [20]
000000 af a2 11 bf 10 35 0f bf 93 de 86 3e 6b 94 19 bf
       -0.5688886 -0.5594034 0.26341686 -0.5999209
000010 a1 8f 0d bf fa 75 38 bf 3e dc d5 be 69 79 0f 3e
       -0.55297285 -0.7205502 -0.41769594 0.14011158
000020 c0 9e 8c bf 60 b9 17 3d d7 bc ab 3e a1 e9 7b bd
       -1.0985947 0.03704202 0.3354251 -0.061502103
000030 07 63 06 bf 58 6e 18 bf 9e 5a e4 3e 2a 94 0f bf
       -0.52494854 -0.5954337 0.44600385 -0.56085455
000040 0c 90 32 3e b2 ab 21 bf c3 70 df be c2 f2 72 3e
       0.17437762 -0.6315261 -0.43640718 0.23725417

decoder.linear_out.weight f4 [10, 20]
000000 c2 8c b6 bf 1a 5d 85 3f 57 e3 c9 c0 64 ce 6b c0
       -1.4261706 1.0419037 -6.3090014 -3.684472
000010 c4 b6 2e c0 12 34 80 3f ac e6 40 3f 34 bd fe 3e
       -2.7299051 1.0015891 0.7535198 0.49753726
000020 87 6d b2 3e 48 13 2e bf ca 39 2e 40 53 6c 92 3f
       0.34849188 -0.6799817 2.7222772 1.1439308
000030 af f8 55 3f 73 80 05 3f 72 a0 32 40 ae 71 03 c0
       0.83582586 0.5214912 2.7910428 -2.0538135
000040 ca 40 19 be f0 e5 98 bf c7 f3 ba 3f 0d 78 0d c1
       -0.14966121 -1.1945171 1.4605645 -8.841809
000050 6c 96 b6 bf dd 17 67 3f 25 98 b9 c0 fe cf 25 c0
       -1.4264655 0.9027079 -5.7998223 -2.5908198
000060 c8 a9 30 c0 88 62 6a 3f fe 4a 25 3f 40 42 32 3f
       -2.7603626 0.91556597 0.64567554 0.6963234
000070 56 a2 fe 3d 04 b8 66 bf 18 fa 0a 40 34 45 75 3f
       0.12433307 -0.90124536 2.1715145 0.9580872
000080 e8 1b 4a 3f 76 1d 22 3f 45 9b 05 40 5b e7 cb bf
       0.7894883 0.63326204 2.087602 -1.5929979
000090 32 30 6f be 38 70 9a bf f4 e5 c9 3f 2c 02 25 c1
       -0.23358229 -1.2065496 1.5773301 -10.31303
0000a0 64 f4 9d bf 05 e4 8b 3f f5 e8 be c0 5a bf 13 c0
       -1.2340207 1.0928961 -5.965937 -2.3085542
0000b0 c7 c4 85 c0 5f a9 83 3f 55 cd 45 3f b4 fc 2c 3f
       -4.1802707 1.0286063 0.77266437 0.67573094
0000c0 af d9 8b 3e 50 0c 17 bf a6 fb 29 40 58 73 8c 3f
       0.27314517 -0.5900316 2.6559844 1.09727
0000d0 d2 93 9c 3f ac 5c eb 3e c1 02 47 40 d3 39 02 c0
       1.2232611 0.4596914 3.109543 -2.0347793
0000e0 a0 83 1e be 8e fe a4 bf 20 12 ba 3f ae b8 0b c1
       -0.15479898 -1.2890184 1.4536781 -8.732588
0000f0 5a 48 ae bf 58 72 8a 3f a3 47 ac c0 b0 8d 07 c0
       -1.361583 1.0816145 -5.3837447 -2.118023
000100 9e 88 36 c0 5d 1a 65 3f ef b7 38 3f a5 1c 31 3f
       -2.8520885 0.8949335 0.7215566 0.69184333
000110 0b c0 3d 3e a8 2f 44 bf cc ed 27 40 ea ee 82 3f
       0.1853029 -0.7663522 2.623889 1.0229161
000120 65 50 84 3f 75 be f6 bd db 64 15 40 09 5e d2 bf
       1.0337034 -0.120480455 2.3342807 -1.6434947
000130 0f 90 02 be a4 17 a4 bf a7 d5 ca 3f f1 ee 1e c1
       -0.12750266 -1.2819715 1.5846452 -9.933335
000140 5c 5e 83 bf ee 2a 0e 40 01 94 0f 40 51 69 64 c0
       -1.0263171 2.2213702 2.2434084 -3.568928
000150 2c ac e0 c0 cb 04 89 bf 9f ce 9d be 5d 91 94 3f
       -7.021017 -1.0704588 -0.30821702 1.1606861
000160 d8 b6 3f bf b3 a6 cf c0 3a f0 d9 c0 c7 fa 94 bd
       -0.7488837 -6.489099 -6.8105745 -0.072743945
000170 3d 13 77 bd cb cb 8b 3f 28 64 9a bf 91 37 64 bf
       -0.06032108 1.0921568 -1.2061815 -0.8914729
000180 a0 8c 8f 3e c5 47 b6 bf bc 74 09 40 c0 99 48 3c
       0.28036976 -1.4240652 2.14775 0.012243688
000190 03 e6 35 bf fd 50 f0 3f ed 64 0d 40 23 3f 80 c0
       -0.71054095 1.8774716 2.209285 -4.007707
0001a0 d1 1f cd c0 be ac 3e bf 7e 9a 6f be 5d 4f 6a 3f
       -6.410134 -0.74482334 -0.23398778 0.9152735
0001b0 aa 9f 09 bf 41 25 e1 c0 9c f9 ff c0 dd 81 29 be
       -0.53759253 -7.0357976 -7.99922 -0.16553445
0001c0 da 5d ab 3d 6e 66 37 3f b5 72 1e c0 20 64 4c bf
       0.0836751 0.7164067 -2.4757512 -0.7984028
0001d0 8a 69 d1 3e 16 72 9b bf 2d 51 cc 3f a8 75 c6 3e
       0.40900832 -1.2144191 1.5962273 0.3876164
0001e0 5b fd be 40 ea b7 b3 bf 05 68 6b c0 c1 a8 93 bf
       5.968427 -1.4040501 -3.6782238 -1.1535875
0001f0 0b 30 29 c1 28 cc 3e c0 c7 af 33 c1 b4 ee ad c0
       -10.574229 -2.9812107 -11.230414 -5.4353886
000200 6d 71 4a 3f 7d 09 a8 40 01 fd 86 bf 60 d3 3c c0
       0.79079324 5.251158 -1.0545961 -2.9504013
000210 5d 8a 4f c0 14 62 bb 3f 0e cc 4d 3f 89 df d0 3f
       -3.24282 1.4639306 0.8038949 1.6318218
000220 6d 14 71 be 20 8e 92 40 9b 9a 9e c0 0f fd 01 c0
       -0.23542948 4.5798492 -4.9563727 -2.0310705
000230 8f c6 09 40 6d cf d6 3f 62 a7 9a 3f 1c 7b 97 40
       2.152744 1.6782051 1.2082331 4.733778
000240 59 86 63 40 3e a8 80 bf ec b9 45 c1 7c 8c 7b 3f
       3.555075 -1.0051343 -12.357891 0.9826124
000250 50 f3 c0 be 30 1b fc 3f b3 e0 3b c0 fe 33 86 3f
       -0.37685633 1.9695797 -2.9355896 1.0484617
000260 59 0b 40 c0 8d 05 b5 bf 1f bb a0 bc 8a 50 86 3a
       -3.0006926 -1.4142319 -0.019620476 0.0010247391
000270 5a a8 9a be a3 bd 92 bf 65 05 22 40 75 40 b0 3f
       -0.30206567 -1.1464123 2.5315793 1.3769671
000280 49 55 3e c0 7e 55 d6 c0 5d f4 2e 3f 6d a0 ac 3e
       -2.9739554 -6.697936 0.6834162 0.33716145
000290 3f 0f 9e 3f 93 f9 2c c1 d6 31 ac 3f 40 ff 0a c2
       1.2348403 -10.810931 1.3452709 -34.749268
0002a0 4f 66 0f 3f 33 9a 1d c1 87 55 e8 c0 d3 18 76 bf
       0.56015486 -9.850146 -7.2604403 -0.9613163
0002b0 7a c4 69 c1 f3 d3 38 3f 20 b4 00 3f b8 42 81 3e
       -14.610468 0.7219841 0.5027485 0.25246215
0002c0 de ca 2a 3e 3f 7c 56 40 81 87 c4 c0 36 97 45 3f
       0.1667895 3.3513334 -6.141541 0.77183855
0002d0 fe 20 26 bc 00 c3 d3 bc 94 5d 3a 3f 6c 6a 12 3f
       -0.010139702 -0.02584982 0.7279904 0.57193637
0002e0 a8 de 5c be c0 13 af 3f 74 9e 24 bb 49 72 eb bf
       -0.21569312 1.3677902 -0.002511886 -1.8394252
0002f0 ac 0a 0a be 80 b7 95 3e 66 c0 bb bd f7 11 f6 3f
       -0.13480633 0.29241562 -0.091675565 1.9224232
000300 b2 41 e4 3e e2 2f 07 bf 8f 6f 2c 3f 34 23 bb be
       0.44581372 -0.5280744 0.67357725 -0.36550295
000310 93 36 95 3d db bc ce bf ea b4 80 bf f7 2d 1e bf
       0.072858 -1.6151384 -1.005521 -0.61788887

decoder.linear_out.bias f4 [10]
000000 8b 13 0e 3f 3f 2b 0d 3f 93 fe d4 3e b1 90 d7 3e
       0.5549857 0.55144113 0.41600475 0.42102578
000010 ae 19 b8 3e 6f 25 55 3e 8a 29 b8 3f d2 67 0f c0
       0.35957092 0.20815061 1.4387677 -2.2407117
000020 15 78 c9 be f4 e3 cc 3e
       -0.39349428 0.40017664

decoder.rnn.weight_ih_l0 f4 [80, 20]
000000 cc 16 3c bf 4a b6 90 bd 31 b2 06 3f 05 d7 00 3e
       -0.73472285 -0.07066019 0.5261565 0.12582023
000010 34 c1 b7 bd 60 a2 7e 3e 4b ce fd bd ec 19 5c 40
       -0.089723974 0.24866629 -0.12392863 3.4390821
000020 8a 9d 9c 3e 64 be 9e 3e 36 0b ea 3f 98 4c 98 3f
       0.30588943 0.31004632 1.8284671 1.1898375
000030 6e 35 38 3e aa ca 6d bf d6 2f b8 3e a4 46 1d 3e
       0.17989132 -0.92887366 0.35973996 0.15358979
000040 2e 34 17 3f 53 6c a4 3e 82 66 6b 3e 44 c1 9a bd
       0.59063995 0.32113895 0.22988322 -0.07556394
000050 77 a2 b3 be 74 d4 43 bd 64 a9 de be f4 fa d3 be
       -0.35084888 -0.047810033 -0.4348861 -0.414024
000060 3f 67 c5 be 91 bb 01 bd ff fe c0 3d 37 1b c6 3f
       -0.38555333 -0.031673018 0.09423637 1.5477055
000070 d2 4d b8 3e ff 3b b7 be 45 4d db be 40 90 6f bf
       0.35996872 -0.3578796 -0.4283239 -0.93579483
000080 98 ae fc 3d 9c 82 72 bf c0 ea ce bd 69 f4 2f bf
       0.123379886 -0.94730544 -0.10103369 -0.68732315
000090 4d e6 0a 3f 5c 0e 16 bd fe 41 7d 3e ee eb 8e 3f
       0.5425766 -0.036634788 0.24732205 1.116575
0000a0 27 2a 62 3f 68 9d 93 3d 3e 4e 44 3d ac b5 5c bd
       0.8834557 0.07207757 0.04792618 -0.053884193
0000b0 d2 35 00 3e 85 55 67 be 21 8a 17 3e dc 41 21 40
       0.12520531 -0.22591217 0.14798786 2.5196447
0000c0 67 2a f5 be 85 68 3c 3e 00 9b 5c 3e c3 06 b1 bf
       -0.47883913 0.18399246 0.21543503 -1.3830189
0000d0 bd a3 62 be d9 de 90 3f 05 34 58 bc ba b2 9f 3e
       -0.22132774 1.1318008 -0.013195996 0.31191045
0000e0 35 5b 32 bf 39 ab 9c 3e f0 36 0c 3d d2 26 e0 3f
       -0.6967042 0.30599383 0.03423208 1.7511847
0000f0 a2 f6 95 3f 22 8d 90 3e d8 d8 fb 3d 47 a5 b0 bc
       1.1715891 0.28232676 0.12297219 -0.021563185
000100 a7 b3 fb be b7 61 cd 3d 58 00 56 3d e4 44 6c be
       -0.491605 0.10028403 0.05224642 -0.23073155
000110 13 93 ef be e7 dd 70 3d ea 58 0f bd 15 38 5a 3d
       -0.46791896 0.058805373 -0.034996904 0.05327614
000120 96 58 1a be 53 2d 32 3f 8a cd c6 3e 7b df 7e 3f
       -0.15072855 0.6960041 0.3882869 0.99559754
000130 ea 59 a8 3c 1f b6 30 3e 6c 16 51 bb 68 fb 5b 3e
       0.020550687 0.17256974 -0.0031904234 0.21482623
000140 14 69 08 40 e2 c1 c0 3d e8 d5 43 3e df b5 c3 bd
       2.1314135 0.0941198 0.19124568 -0.095561735
000150 01 14 da bc 11 50 74 bd 34 7b 41 39 07 29 b7 3f
       -0.026620867 -0.05964667 0.00018451811 1.4309396
000160 a1 86 1f bf a3 50 c5 3e a7 86 59 3d ce d3 cd 3d
       -0.623148 0.38538083 0.05310693 0.10050164
000170 df d7 2a 3e 90 ee 82 40 65 2f 45 be 28 24 10 3f
       0.16683911 4.0916214 -0.19256361 0.5630517
000180 eb 17 cd 3e aa 34 0a be c7 87 c5 3d 6e d2 59 3f
       0.4005731 -0.13496652 0.09645038 0.85086715
000190 72 1a 90 3f 44 8b 7b 3e fd f4 48 3e 7a 06 02 3c
       1.125807 0.24564844 0.19624706 0.007936114
0001a0 0c d9 ed 3c 09 cb 1d 3e 23 95 f8 3c 9a e2 47 be
       0.02903416 0.15409483 0.030344551 -0.19520035
0001b0 0f 37 71 3f 47 2a ac 3e cf 51 ef 3d b7 c1 09 bf
       0.9422464 0.33626005 0.116855256 -0.5381121
0001c0 16 ab 6c bd 24 c2 d6 3f 1c 08 ab be e6 6c b4 3f
       -0.057780348 1.6777997 -0.33404624 1.4095733
0001d0 9b 81 92 bd 3f 14 a9 3c d0 b9 a3 3e 90 a7 b8 be
       -0.071536265 0.020639537 0.319777 -0.3606534
0001e0 f9 f3 97 3f 23 4d 63 be 1d 9a 3e 3f f9 5e 8d 3d
       1.187133 -0.22197394 0.7445391 0.0690288
0001f0 66 54 af bd 7c b4 4c bc cc c1 21 be 48 84 c6 3f
       -0.085610196 -0.012494203 -0.15796584 1.5509119
000200 6b 29 9e 3f e2 92 2c 3f e6 71 45 3e 7f fe 8c bf
       1.235639 0.67411625 0.1928173 -1.1015166
000210 04 2d 03 be 90 72 4d 40 56 bb 37 bf 55 83 aa 3f
       -0.12810141 3.2101173 -0.71770227 1.3321329
000220 d0 3a a9 3e a4 40 8f bd 2d e8 90 3e eb 95 c5 bf
       0.33052683 -0.06994751 0.28302136 -1.5436376
000230 78 3c c7 3e 79 a6 63 be 3a 4a 8d bf ce 6b 89 bd
       0.38913321 -0.22231473 -1.1038277 -0.06710015
000240 73 d2 91 be 2a 78 3b be 28 c8 35 be 33 f0 66 bf
       -0.28480873 -0.18307558 -0.17752135 -0.90210265
000250 4a 6e 9f bf b3 71 69 bf a0 9b a5 be 34 b0 b3 3f
       -1.2455533 -0.91189116 -0.32345295 1.4038148
000260 2c 8a 69 be fa 74 36 bd 5b be 35 3f 53 85 50 be
       -0.22806615 -0.04454515 0.70993584 -0.20363359
000270 bf dc 1c 3f eb 80 bc 3e 84 d7 bb 3e 1e 03 42 bf
       0.6127433 0.36817107 0.36687863 -0.75786006
000280 e8 0b fc 3f e6 6e 33 3e f4 34 10 be b2 71 05 be
       1.9691133 0.17522773 -0.140827 -0.13031653
000290 e2 86 7d be 73 af 06 be 32 f8 27 be 76 b5 4c 3f
       -0.24758485 -0.13152866 -0.16403273 0.7996439
0002a0 ea f8 af bd bc 00 2e bf 36 4f cd 3e e4 ea 52 3e
       -0.085923985 -0.6796987 0.40099496 0.20597416
0002b0 d1 c9 22 be f2 37 10 40 4a 27 a1 3d 5e 57 0c 3f
       -0.158973 2.2534146 0.07868822 0.5482081
0002c0 00 53 c5 3f fa 3e 8b 3d 53 a4 a9 bd aa aa 8e be
       1.5415955 0.06799121 -0.082832955 -0.2786458
0002d0 13 18 3f 3f 5f 23 36 3e 36 58 d3 be b0 4e 32 3e
       0.7464611 0.1778693 -0.41278237 0.1741283
0002e0 1f 29 60 be b1 77 e4 bc 51 7f de 3d 22 c3 10 3e
       -0.21890686 -0.027889105 0.108641274 0.14136937
0002f0 fb 3d e4 be 77 76 f6 bd 9f 4c ad 3e 68 8b 41 be
       -0.44578537 -0.12034314 0.3384752 -0.18900836
000300 4e 0e 5d be 59 43 95 bd 07 5c fa 3d e9 0a 7d be
       -0.21587488 -0.07288236 0.12224584 -0.24711193
000310 24 f7 6f 3e a8 6c 07 3e 94 90 94 3d 61 04 c4 3c
       0.2343412 0.13225043 0.072541386 0.02392787
000320 88 f7 72 3f a1 ec eb 3d f2 ac be be 7a 04 c5 3d
       0.9490895 0.11519743 -0.37241322 0.096199945
000330 ed 97 cb be 8d d8 ad bc ee 1a 21 be 8b ae 1f 3f
       -0.39764348 -0.021221424 -0.15732929 0.62375706
000340 98 e4 1d be 78 00 ba bd 16 e2 ea 3b f9 7b 22 be
       -0.15419233 -0.09082121 0.007168065 -0.15867604
000350 47 27 39 3d ca af ba 3e 39 a9 03 3f 0e 77 49 3f
       0.045203473 0.3646224 0.5143009 0.7869729
000360 af 57 3d 3e 0c 07 88 3d 7e 64 a5 be 4a a1 40 3e
       0.1849048 0.06641969 -0.32303232 0.18811527
000370 f9 fc 2f 3f f8 46 fb bd 91 9f a1 be 1a 80 1b bd
       0.6874538 -0.122693956 -0.31567052 -0.037963964
000380 a3 b6 cd be 84 41 35 3d cc 06 f7 3d bd db 3d bd
       -0.40178403 0.044251934 0.12061843 -0.046352137
000390 3a 55 00 3f ca de e9 3d c9 2f 30 bf 0b d6 5d 3f
       0.50130045 0.11419447 -0.68822914 0.8665473
0003a0 7d 78 22 3f 18 d4 96 3f bb 29 2a 3f 47 c2 d0 3e
       0.634651 1.1783476 0.66469926 0.40773222
0003b0 b7 09 83 3e c9 ac 87 3d ac 7a 87 bd f3 2c f2 3e
       0.2559335 0.06624753 -0.06615195 0.4729992
0003c0 1f ac 0e 3f ea 95 65 3e 6e a5 53 3f 98 7d 76 be
       0.55731386 0.22420469 0.826743 -0.24071348
0003d0 25 7a 84 3e c3 09 12 3e a2 92 e5 3d af 85 a8 bc
       0.2587444 0.14261536 0.112096086 -0.020571558
0003e0 a7 b8 05 3f 89 d2 af 3d 81 3c 77 be ec 8f 12 3f
       0.5223488 0.08585078 -0.24144174 0.5725086
0003f0 a2 cb 19 3e 0d 7b 85 3e 11 8d c7 3f 3c 0d bf 3e
       0.15019086 0.26070443 1.5589925 0.37314785

decoder.rnn.weight_hh_l0 f4 [80, 20]
000000 2c 66 dd 3e ec af 58 40 f6 80 bb be 9c 4a 7f bf
       0.43242013 3.3857374 -0.36621827 -0.9972322
000010 55 25 06 be 5c 87 61 be 95 38 1e 3f 1d ee 09 3e
       -0.13100179 -0.22024292 0.6180509 0.1346974
000020 2f 51 16 bf 76 ac 29 bf cb 39 65 bf b9 45 a4 3e
       -0.58717626 -0.6627878 -0.8954131 0.32084444
000030 54 db 23 3f a5 7c fa 3d 1f 17 57 bf 38 65 c1 be
       0.64006543 0.12230805 -0.84019655 -0.37772536
000040 51 4b c2 be 33 a1 19 3f c0 39 be 3f 15 87 ae be
       -0.37948087 0.60011595 1.4861374 -0.34087434
000050 d2 78 d7 bd a9 8a 66 40 7a eb 9e be 0b 4a e0 3e
       -0.105210915 3.6022131 -0.3103903 0.4380649
000060 e1 a6 42 be 2f 82 0c bf cd 17 32 3c 39 8a ad 3d
       -0.19008972 -0.54886144 0.010869932 0.084736295
000070 63 95 e8 bd c7 93 a2 3e bd 53 3c 3f eb 67 b3 3e
       -0.11356618 0.3175337 0.73565274 0.3504022
000080 1d 12 20 be a3 a8 48 3f df 68 ab bf c2 b9 09 3f
       -0.1563191 0.7838232 -1.3391379 0.5379907
000090 ea 7a 0b 3d 76 9f 2b bf 27 16 dc 3e fc cc 99 be
       0.034052767 -0.67040193 0.4298565 -0.30039203
0000a0 f3 d3 fa 3e a1 d1 a9 3f b4 ba 21 bf 38 2b ac bf
       0.4898983 1.3267099 -0.6317551 -1.3450689
0000b0 6e df 50 bf bc 3b c1 bf 74 be 38 c0 a2 ed 47 bf
       -0.81590927 -1.5096354 -2.8866243 -0.78096974
0000c0 75 1d 0a 40 c5 3f a4 bf 8e d2 2e c0 61 57 33 3f
       2.158048 -1.2831961 -2.7316012 0.70055205
0000d0 ee 73 81 bf b5 74 19 bf 3c 6e 95 bf e0 17 8c 3f
       -1.0113504 -0.59943706 -1.1674266 1.0944786
0000e0 81 02 81 3f 65 24 81 3f 8b 6d 95 3e 17 de be 3e
       1.0078889 1.0089232 0.29185137 0.37278816
0000f0 29 2d 06 3f f7 f6 7c 3e aa de d2 3e 97 7d 11 bf
       0.5241266 0.24703585 0.41185504 -0.5683226
000100 44 c5 dd bd 95 c2 00 bd ae 1b ca 3e d8 99 a6 3e
       -0.10828641 -0.031435568 0.39474243 0.32539248
000110 a6 1e 73 3e a9 6f 42 bf 99 18 88 3e 32 b6 0e 3e
       0.2374216 -0.7595163 0.26581267 0.1393669
000120 62 a2 36 be 22 b7 f5 3e 43 db 5b 3e 39 4a d5 3d
       -0.17835382 0.47991282 0.2147036 0.104145475
000130 c3 46 9b be 71 ea 4a 3e d6 91 98 bd 09 ce 6c 3e
       -0.30327424 0.19815995 -0.07449691 0.23125471
000140 4d 50 5e 3d d7 4d 23 bd cd 58 ec 3f 29 49 85 bc
       0.0542758 -0.039869156 1.84646 -0.016270237
000150 8a a7 86 3f 60 1f 0c 3e b0 df 84 3f 8b fc ab bf
       1.0519879 0.13683844 1.0380764 -1.3436445
000160 ef 8a b5 3f 51 ba 19 be 3e 81 11 3f 2b 4c 50 be
       1.4183024 -0.1501248 0.5683783 -0.20341556
000170 92 3f 16 bf 96 78 8c 3e 98 f8 19 3f 78 2b c6 3d
       -0.5869075 0.2743575 0.6014495 0.0967626
000180 27 d0 06 3f 03 7b d9 bf 99 ae 33 bf 9d 50 8e 3f
       0.52661365 -1.6990665 -0.7018829 1.1118351
000190 07 c9 3c bf 09 ed ad 3e e4 c5 21 bf 9b fc 19 bf
       -0.73744243 0.33969906 -0.6319258 -0.6015107
0001a0 69 a6 0d bf a8 13 c3 bf 55 75 0e c0 3b 51 4a bf
       -0.55332047 -1.5240374 -2.2259114 -0.790302
0001b0 06 26 f0 3d 61 24 b3 be 46 a9 96 be 2b 7d 08 3e
       0.117260024 -0.34988692 -0.2942602 0.13328998
0001c0 63 4e 77 bf 89 ae 01 3f 3b 37 97 be 6f c7 0e 3f
       -0.96603984 0.50656945 -0.29534325 0.5577306
0001d0 e8 ff 7f 3e ec 8a 06 3e c0 12 e6 3e 18 17 37 bf
       0.24999964 0.13138932 0.4493618 -0.71519613
0001e0 dc 37 33 bf 15 15 8f bf 28 25 1f bf a5 60 fb 3e
       -0.7000711 -1.1178309 -0.6216607 0.4909717
0001f0 18 76 ab 3f ef fc 32 3f 6d 94 63 3f e7 99 02 c0
       1.3395414 0.69917196 0.88898355 -2.0406435
000200 b4 98 fa 3f 68 a6 8b 3e 0b d6 d3 3f 3d 24 90 bf
       1.9577851 0.27275395 1.6549696 -1.1261059
000210 a1 9b 48 be 4f 88 b7 3d 79 f6 7d 3e c0 3d 31 be
       -0.19590618 0.08961546 0.24801053 -0.17308712
000220 c3 35 1c bf 8e be 38 bf e9 e2 15 bf b7 b6 e2 3e
       -0.61019534 -0.72165763 -0.5854936 0.44280025
000230 3e 72 b2 be d7 3b 9f bd 0e 74 84 3f 60 b5 ba bd
       -0.34852785 -0.077750854 1.0347917 -0.09116626
000240 db 76 61 be 96 de 44 3f ca d1 46 bd e0 91 f5 3f
       -0.22017996 0.7690214 -0.048539914 1.9185143
000250 50 d0 22 be 23 5a 00 be 41 dd cb be 4d 4e a7 bd
       -0.15899777 -0.12534384 -0.3981724 -0.081692316
000260 58 f8 dd bf b8 ba b6 bd 4a e7 c2 bf 74 98 8f be
       -1.7341413 -0.089223325 -1.5226834 -0.28046
000270 e3 07 9e 3f 53 c3 ef bf 74 a3 f5 be e5 97 bd be
       1.2346157 -1.8731483 -0.47976267 -0.3702995
000280 b7 b2 59 bf 32 e2 5c 3f cc ec 6c bd e8 84 e3 be
       -0.8503832 0.86282647 -0.057843015 -0.44437337
000290 41 78 b8 3e 5a a3 0c bf c5 f6 68 bf 36 af 10 3e
       0.36029246 -0.54936755 -0.9100154 0.14129338
0002a0 6c f2 f8 3f 43 64 25 bf ae 13 92 be 3e f1 4d 3e
       1.9448981 -0.6460611 -0.2853064 0.20111558
0002b0 c4 d7 cd bf 33 e6 5c 3d ec 91 41 bf e2 cf 5b 3f
       -1.6081471 0.053930473 -0.75613284 0.8586408
0002c0 82 c5 12 40 18 a2 06 bf 71 07 ca be 3e b6 5e 3e
       2.293305 -0.52591085 -0.39458802 0.21749207
0002d0 8e 98 1a 3f d9 8c 4c be 58 48 a1 3e 5b fc 7e bf
       0.6038903 -0.19975604 0.31500506 -0.99603814
0002e0 8d 0d 69 be 02 08 01 bf 1e 0a 7c 3e 49 87 90 3e
       -0.22759075 -0.50402844 0.24613234 0.28228214
0002f0 ae 2c 49 3d 4d 26 b4 bf 6e a1 22 3f b1 e0 7a 3f
       0.049114875 -1.4074188 0.6352757 0.979991
000300 e2 14 24 3e 92 ff 38 3e b2 fe 5f 3e 54 cf 93 be
       0.16023591 0.18066242 0.21874502 -0.28869116
000310 67 a1 1e 3f 88 c4 04 3e e9 65 25 be d4 a9 71 3c
       0.6196503 0.12965596 -0.16152157 0.014749963
000320 ff b5 73 3e 5a ec 99 be 7a 37 39 be ab bf 80 bf
       0.23799895 -0.30063134 -0.18087569 -1.0058492
000330 76 4a 72 3e bd 87 34 bf 5c 84 25 3f 9b ea cd bd
       0.23661217 -0.7051962 0.6465509 -0.10054513
000340 a8 fa 0d 3f e7 43 45 bf ad b7 9d bf 96 9d 69 3e
       0.55460596 -0.77056736 -1.2321678 0.2281402
000350 d3 95 2e 3d 48 97 e7 3e b9 7a b2 be 88 f2 24 3e
       0.042623352 0.45232606 -0.34859255 0.16108143
000360 c2 18 2e be aa ad 59 3e 7c 25 a1 3c 98 64 d7 be
       -0.17001632 0.21257654 0.019671194 -0.42068934
000370 cb a7 00 40 d6 e3 ea 3f 7f 22 31 3f 00 c9 ac be
       2.0102413 1.835078 0.6919326 -0.337471
000380 09 25 db 3e e8 ff bd bf ff 6e 97 3f 2c 06 57 bf
       0.42801693 -1.4843721 1.1830748 -0.8399379
000390 f6 41 ef 3e 47 d0 a8 bf cc 29 c4 bf 62 25 53 3f
       0.46730012 -1.3188561 -1.5325255 0.82478917
0003a0 9a e2 67 bf 94 73 d8 bf 88 fb 96 bf ec 42 10 3f
       -0.9058014 -1.6910272 -1.1795511 0.56352115
0003b0 1f 16 da be 51 7a ff 3f fd 1b 1c 3f 22 2d c9 3f
       -0.42595002 1.9959203 0.60980207 1.5716898
0003c0 f3 7c 1a bf d2 30 79 be 25 f7 8d 3e 74 b7 f8 be
       -0.6034691 -0.2433503 0.2772762 -0.48577464
0003d0 ad f9 93 3f f4 67 75 bf bf 39 2a 3f 70 76 fe bd
       1.156057 -0.95861745 0.66494364 -0.12424934
0003e0 ff 8a a1 bd d6 e4 09 bf dc 68 49 bf 1b bf d9 be
       -0.078878395 -0.538648 -0.7867563 -0.42528614
0003f0 30 6a 9e bf 37 6f 1b bd 99 c0 09 bf c0 26 75 3e
       -1.2376156 -0.03794786 -0.53809506 0.23940563

decoder.rnn.bias_ih_l0 f4 [80]
000000 1b b3 54 3e 69 db 46 3e 31 1e 94 be 99 07 3d bf
       0.20771448 0.19419636 -0.28929284 -0.7383972
000010 24 4d fe be c9 df 27 bf 73 fc 9e 3c 17 58 86 3d
       -0.4966823 -0.65575844 0.019407487 0.065597706
000020 0e 60 f0 be 9c 3c bc be f0 16 80 be 1f 85 88 be
       -0.46948284 -0.3676499 -0.250175 -0.26664063
000030 b0 e3 aa be 6e 89 82 be 44 02 a1 3e 73 89 82 3e
       -0.33376837 -0.25495476 0.3144704 0.2549549
000040 f5 46 a5 be bb 2b e4 be 90 ae 41 3f 41 5f 49 bf
       -0.32280698 -0.44564614 0.75656986 -0.7866097
000050 2c 19 ce 3d ba 75 d7 3e ec a5 a2 bf cd 0b a3 3d
       0.10063395 0.42082006 -1.2706885 0.07961235
000060 7b 89 92 be f8 c6 a8 3e 5a 52 20 bf cf da 09 3f
       -0.28620514 0.329643 -0.6262566 0.538495
000070 e8 7f 4a 3e 2f ea 31 3f c2 27 47 3f bd 37 6e 3e
       0.19775355 0.6949796 0.7779504 0.2326345
000080 60 e5 d1 3e b7 ca 38 3e 1a 4c 16 3d 2d ce db 3c
       0.40995312 0.1804608 0.03669367 0.02683171
000090 33 3b a4 3e fe c9 9d be 0e dc bc 3d 30 f8 1e 3e
       0.32076415 -0.3081817 0.092216596 0.15524364
0000a0 04 4d 4e 3c 57 dc cf 3e 58 0f 35 be 2d 2c b8 3e
       0.012591604 0.40597793 -0.17681634 0.35971203
0000b0 62 e2 52 bf e2 7b 90 3e c5 cf ec be e5 dd d0 3e
       -0.8237668 0.28219515 -0.46252266 0.40794292
0000c0 5d a3 c4 be b8 90 4b 3e cc e0 36 3e 12 b2 e1 3e
       -0.38405886 0.19879425 0.1785919 0.4408117
0000d0 72 04 16 3f 47 06 b6 be bc c2 11 bd 3b 2c b8 be
       0.58600533 -0.35551664 -0.035586104 -0.35971245
0000e0 c5 6a ce bb b2 70 41 3e 57 81 d2 3e 3e c3 52 be
       -0.006299349 0.18890646 0.41114303 -0.20582291
0000f0 05 78 cc 3e bd a7 1a bd 0f 08 e9 be f7 a4 3f be
       0.39935318 -0.037757624 -0.4551396 -0.18715273
000100 37 10 02 bf 8e 2d 1a be 14 2b ea 3e 3d 2d 32 bf
       -0.5080599 -0.1505644 0.4573599 -0.6960028
000110 90 75 f8 be e0 14 37 be 17 1d c5 be c1 cd b8 be
       -0.48527193 -0.17879057 -0.38498756 -0.36094478
000120 36 ce 84 be ff cb c9 3e 7a 73 9e bb b4 43 06 bf
       -0.25938576 0.3941345 -0.004835543 -0.52447057
000130 c3 63 df be 25 ec 12 bf 9c 01 b0 3f 98 c9 4b bf
       -0.436308 -0.5739158 1.3750491 -0.7960448

decoder.rnn.bias_hh_l0 f4 [80]
000000 82 02 d6 3e f7 49 65 3e 39 66 87 be 08 a4 2a bf
       0.41798788 0.22391497 -0.26445177 -0.6665654
000010 72 a7 06 bf e7 a2 8f be 56 d9 9f 3e c2 aa 74 be
       -0.5259925 -0.28053972 0.31220502 -0.23893264
000020 5a 49 f2 be bc 4c d3 be 59 87 0a bf 02 fe 57 be
       -0.47321588 -0.4126948 -0.54112774 -0.2109299
000030 a6 12 e3 be 79 0b 72 be 8b 38 60 3e b5 89 bf 3e
       -0.44350165 -0.23637189 0.2189657 0.3740975
000040 ab 12 13 bf f6 d3 1a bf c0 90 3c 3f 2b a4 4f bf
       -0.5745036 -0.60479677 0.7365837 -0.81109875
000050 b7 f5 0b 3e 29 b9 0a 3f 86 23 9b bf 15 6d 11 be
       0.13667952 0.5418878 -1.2120216 -0.14201768
000060 fd eb 01 bf 05 74 86 3d 28 ac 07 bf 95 22 55 3f
       -0.50750715 0.06565098 -0.52997065 0.83255893
000070 a8 aa ac 3d d6 3d 20 3f 4f fc 62 3f 60 cd 92 3e
       0.084309876 0.62594354 0.8866624 0.28672314
000080 97 ca e1 3e f0 9b ba 3e e3 ad ff 3d b8 20 b9 3e
       0.44099876 0.36447096 0.12484338 0.36157775
000090 61 00 50 3e 30 0f 34 be a1 c8 91 3e af 11 5b bd
       0.20312645 -0.17583919 0.2847338 -0.05348366
0000a0 97 64 b1 3d d1 fb d2 3d fb 20 03 bf f1 14 9b 3e
       0.08661764 0.103019364 -0.512222 0.30289415
0000b0 3b 27 33 bf 0d 70 f2 3e d8 c6 46 be 8d 51 93 3d
       -0.69981736 0.47351113 -0.1941179 0.07193289
0000c0 0f e5 80 be 73 92 93 3e 93 c3 32 3e 55 71 fd 3e
       -0.25174758 0.2882267 0.17457418 0.49500528
0000d0 71 d8 e2 3e 49 6a ba be 4e c1 85 3d 31 fa dc be
       0.44305757 -0.36409214 0.065310106 -0.4315963
0000e0 0c d8 cd bd 66 04 ea 3b f3 b0 fd 3e 52 9f 8b be
       -0.10050973 0.0071416376 0.49549064 -0.2726999
0000f0 90 90 04 3f 9a 58 a2 be 74 b5 6a be ff 2f 87 be
       0.51783085 -0.31708223 -0.22920781 -0.26403806
000100 c4 18 17 be 5b cb 03 bf 79 fc 55 3e 96 aa 35 bf
       -0.14755541 -0.5148217 0.20897092 -0.7096342
000110 25 7d 8e be 77 22 0c bd 1a 93 b4 bd 8b 3f a5 be
       -0.27829853 -0.034212556 -0.0881712 -0.32275042
000120 9e 20 05 bf 4f ca 2f 3d d6 f9 83 bd 66 0b 18 bf
       -0.52002895 0.042917546 -0.06444137 -0.5939239
000130 e4 64 af be 06 65 57 bf 87 fd b0 3f f3 0d 34 bf
       -0.3425666 -0.84138525 1.382737 -0.70333785

value_decoder.fc1.weight f4 [64, 4]
000000 70 c4 c5 bd 9c 79 75 be e0 cf 6f 3e 3e a8 f9 3e
       -0.09656608 -0.23972172 0.23419142 0.4876117
000010 00 ca 77 3c ec d6 e4 3e b2 44 a6 3e 94 f1 5a 3e
       0.015123844 0.44695222 0.32474285 0.21381217
000020 9c 5a d0 be c6 55 95 3e 26 fb dc 3e a4 2f 22 be
       -0.4069413 0.29167002 0.4316036 -0.15838486
000030 bc c9 52 be 48 2b 6b 3e 50 16 fe 3d b0 be 12 3e
       -0.20584768 0.22965729 0.124065995 0.14330554
000040 7c a2 98 be 92 ca 94 3e e4 27 5d 3e ae 84 c1 3e
       -0.29811466 0.290608 0.21597248 0.3779654
000050 84 0f f5 be 88 48 02 be c0 91 cb 3c fc 2b 5a 3e
       -0.478634 -0.12722981 0.024849772 0.21305841
000060 40 56 75 3d 4c 26 df be e0 ef 08 3d 54 87 a5 3e
       0.059896708 -0.43583906 0.033431888 0.3232981
000070 f8 7c ee 3d 00 8f 65 be c8 2b 66 3e 64 c0 ce 3e
       0.1164493 -0.22417831 0.22477639 0.40381157
000080 a2 91 b7 be 60 38 b3 bd 2c bf a8 3e dc 53 c2 be
       -0.35853297 -0.08750987 0.32958353 -0.37954605
000090 c0 51 84 3d b8 e1 89 3e a0 b5 b8 bd f0 5c 32 3d
       0.06460905 0.26930022 -0.09019017 0.043545663
0000a0 28 a4 42 3e 3c 68 3e 3e 70 a3 f8 be 9c c4 a6 3e
       0.19007933 0.1859445 -0.48562193 0.32571876
0000b0 be 1c a4 3e c0 5c bc be 12 14 fe be 08 be f4 3d
       0.3205318 -0.36789513 -0.49624687 0.11950308
0000c0 60 7e 58 be 78 c2 24 be 44 95 5d 3e 00 86 bd bb
       -0.21141958 -0.16089809 0.21638972 -0.0057837963
0000d0 00 fe 6d bc f8 b3 d2 3e 28 81 fc bd 9c 65 cd 3e
       -0.01452589 0.4115293 -0.12329322 0.40116584
0000e0 88 db a1 3d 2a 21 aa 3e 40 7b ac 3d 48 12 02 be
       0.079032004 0.33228427 0.084219456 -0.12702286
0000f0 e0 f2 7a be a2 3b c4 3e 7c bb 42 be 58 a8 ad bd
       -0.24506712 0.38326746 -0.19016832 -0.08479375
000100 30 ab ac 3d 20 23 28 3e 7c 1f cd be 62 28 b3 be
       0.08431089 0.16419649 -0.40063083 -0.34991747
000110 a8 8f 5b 3e 04 bd db 3e 52 86 9c be 2a c7 e3 be
       0.2144152 0.42917645 -0.30571228 -0.44487888
000120 12 5e b2 3e 40 53 ac bd 30 b8 cf be b4 6e 64 be
       0.34837395 -0.08414316 -0.4057021 -0.22307855
000130 46 d8 a6 3e d6 55 d0 3e 82 ac c6 3e 1a 24 c6 be
       0.3258688 0.40690488 0.38803488 -0.38699418
000140 90 ae a4 3e 24 ef 3c 3e c6 aa c9 be 90 a4 08 3e
       0.3216443 0.184506 -0.39388102 0.13344026
000150 40 65 6c bc 3c 63 4b 3e 90 51 7f be 5c b4 cd 3e
       -0.014428437 0.19862074 -0.24933457 0.40176666
000160 98 21 dc 3e 1c ed d8 3e 0a 53 cd be 9a 3c ec be
       0.4299438 0.423684 -0.40102416 -0.46139985
000170 80 08 69 be b0 77 f6 3d 98 67 aa 3d 9e 89 d9 be
       -0.22757149 0.12034547 0.0832054 -0.42487806
000180 6e a3 d1 be 88 77 18 be 80 d5 ae bb c8 bc b3 be
       -0.40945 -0.14889348 -0.00533551 -0.35104966
000190 f8 51 05 3e d2 05 8d 3e 38 14 87 3d 28 75 77 3e
       0.1301955 0.27543503 0.06595653 0.24165785
0001a0 74 b5 0a 3e c6 35 89 3e 8c f8 61 3e 50 71 61 be
       0.13545781 0.26798838 0.2206747 -0.22015882
0001b0 00 15 c0 bc 64 f0 63 3e 2c 03 73 3e e0 8e f6 bd
       -0.023447514 0.2225967 0.23731679 -0.1203897
0001c0 f8 bd ec 3e 84 46 63 be 04 fe 7a 3e 40 55 42 bd
       0.46238685 -0.22194868 0.24510962 -0.047444582
0001d0 42 b1 9c be 02 8d e1 3e d4 5f 89 3e 9c ff 1b be
       -0.30603987 0.44052893 0.26830924 -0.15234226
0001e0 b2 79 81 be 60 69 e6 be d0 ab 31 3e d0 ab 06 3e
       -0.2528816 -0.4500227 0.17350698 0.13151479
0001f0 a4 a9 7f be 40 72 c7 3c 7c 17 a2 be 64 1b 06 be
       -0.24967057 0.02434647 -0.31658542 -0.13096386
000200 88 ad 82 be 66 e3 e0 3e 94 da bb 3e b0 29 53 3d
       -0.2552302 0.4392349 0.366902 0.05155343
000210 20 49 d9 3d 48 dc df 3d 40 d2 ad be 84 3e 82 be
       0.106096506 0.10930687 -0.3394947 -0.2543832
000220 d6 f7 fd be ba 24 cb 3e 0c d0 6e be 62 20 95 3e
       -0.49603146 0.39676458 -0.23321551 0.2912627
000230 c8 48 b2 bd 24 a5 8c 3e 22 c6 ce 3e 02 3e b5 be
       -0.08705288 0.27469742 0.40385538 -0.3539887
000240 54 3c 3f be d2 48 ef be bc c6 0d 3e 00 9f 2c bc
       -0.18675357 -0.46735245 0.13845342 -0.010535955
000250 68 da fb be 5e 7c 8b be 08 5e d7 3d 80 46 e7 bb
       -0.49190068 -0.27243322 0.10515982 -0.007057965
000260 28 3a fa 3e c0 a0 c5 be c0 e7 12 be 60 a4 e8 3e
       0.48872495 -0.38599205 -0.14346218 0.45437908
000270 bc 90 f9 3e b4 8f b5 3e 54 88 c1 3e 3c cc c7 3e
       0.48743236 0.354612 0.37799323 0.39023006
000280 40 de b9 3c a8 64 38 be 4e 4b 9a 3e 8c 3b 5e 3e
       0.022688985 -0.18007147 0.30135578 0.21702403
000290 da 6a e3 3e f6 96 d5 3e 94 f3 44 be 78 21 ab 3e
       0.4441746 0.41716737 -0.19233543 0.33423972
0002a0 7a 99 96 3e a8 b7 98 3e 68 97 fc bd 3c 68 6b 3e
       0.29413968 0.2982762 -0.12333566 0.22988981
0002b0 5c 5c fa be b0 db 00 be 10 52 16 be 18 5e d7 bd
       -0.4889859 -0.12583804 -0.14679742 -0.10515994
0002c0 12 d2 a3 be 88 79 13 3e a0 f2 ae 3c b6 1d d9 3e
       -0.31996208 0.14401829 0.021355927 0.4240548
0002d0 14 15 f8 be a0 5a 88 3d 54 66 f3 3e d0 fd ca 3e
       -0.4845358 0.0665791 0.47539008 0.3964677
0002e0 98 54 0a be a8 f5 f3 be a0 1d 11 3e ac d4 10 be
       -0.13508832 -0.47648358 0.14171457 -0.14143628
0002f0 00 9b e5 3e 10 fe 60 3d 84 bd 58 be f0 ec eb 3e
       0.44844818 0.054929793 -0.21166044 0.46079206
000300 20 89 1a be 70 59 ca 3e b4 b9 a3 be f8 8a f9 3e
       -0.15091372 0.3952136 -0.31977618 0.48738837
000310 42 2a f4 be 8a 45 dd 3e 68 d5 58 3e e0 95 ae 3d
       -0.4768849 0.43217117 0.21175158 0.0852468
000320 d4 76 32 be 14 40 62 3e 2a c3 e1 be 14 5d ec 3e
       -0.17428142 0.22094756 -0.4409421 0.46164763
000330 e8 dc 72 be 00 30 14 bc 52 39 fc 3e d0 bc f2 3d
       -0.23717082 -0.009044647 0.49262482 0.118524194
000340 3a bc d5 3e c0 d9 f6 be 90 f7 a9 3d e0 e5 d1 bc
       0.41745168 -0.48213005 0.08299172 -0.025622308
000350 38 3f 28 be 2e 0d 99 3e 0c b1 e3 3e 06 6e d2 be
       -0.16430366 0.29892868 0.44471014 -0.41099566
000360 de e9 b4 be 50 09 6a 3d e4 27 2f be 00 bc df bd
       -0.35334677 0.057137787 -0.17105061 -0.1092453
000370 8a 27 82 be 68 c9 b1 bd fc bf 69 3e 88 10 37 3e
       -0.2542079 -0.08680993 0.22827142 0.178774
000380 b8 78 38 3e b0 1a c9 bd c8 d0 cc 3e 9a 20 f9 be
       0.180148 -0.09819543 0.40003037 -0.48657686
000390 80 43 85 3d 94 43 5c be ea f6 d6 3e 7e 79 ab 3e
       0.06507015 -0.21510154 0.41985255 0.3349113
0003a0 1c d9 09 3e 10 52 33 3e 92 40 93 be 28 ff 8e bd
       0.13461727 0.17511773 -0.287602 -0.06982261
0003b0 7c 31 65 be c0 f4 08 bc 38 39 50 be f0 2b 6b be
       -0.22382158 -0.008359134 -0.20334327 -0.2296598
0003c0 b4 15 4d be 10 b8 19 3e 86 39 d6 3e f8 be 86 bd
       -0.2002781 0.1501162 0.41840762 -0.06579393
0003d0 00 53 a7 bc f0 77 d3 be 20 1f 07 be c8 68 eb bd
       -0.02042532 -0.41302443 -0.13195467 -0.11494595
0003e0 0e b4 82 be 70 67 4e 3e 0c 12 3e 3e ca cf a6 3e
       -0.25527996 0.20156646 0.18561572 0.32580405
0003f0 08 8c 4b be b6 5b d9 be dc 14 28 be a0 cf 86 3c
       -0.19877636 -0.42452782 -0.16414207 0.016456425

value_decoder.fc1.bias f4 [64]
000000 c4 dc 3c be c0 d8 c7 bd 9c 73 cb 3e de be f5 be
       -0.1844359 -0.09758139 0.3973664 -0.47997183
000010 80 19 dd bc 5a 39 fd 3e 80 6e 6d be 00 0d 3d 3e
       -0.026989698 0.49457818 -0.23186684 0.1846199
000020 ca 1a 8a be f8 11 77 be 6c 36 ec be fa d0 e5 3e
       -0.26973563 -0.24127948 -0.4613527 0.44886
000030 88 4a 9e be f0 b9 11 bd 6c bd e3 3e 00 13 1b bd
       -0.30916238 -0.035577714 0.44480455 -0.037859917
000040 e6 51 a0 3e 12 cb a7 3e d2 4c d4 3e 66 7a eb be
       0.31312484 0.32772118 0.4146486 -0.4599182
000050 44 cc e0 3e f0 ef 1a be 96 f1 ca be 1a 3f 92 3e
       0.43905842 -0.15130591 -0.3963744 0.28563768
000060 ce d9 f2 be a0 40 94 bc 60 e2 cd bd 0c 6a f5 3e
       -0.47431797 -0.018097222 -0.10052943 0.4793247
000070 40 64 64 bd 74 d1 5f be ac e4 85 3e 78 c4 a2 be
       -0.05575967 -0.21857244 0.26151025 -0.3179052
000080 94 04 f6 3e 3e d1 d4 3e e2 60 a2 be 10 d1 ba 3d
       0.48050368 0.4156589 -0.3171454 0.09121907
000090 14 b6 90 be f0 c1 97 3d 94 69 c4 3e d4 31 9d be
       -0.28263915 0.074100375 0.383618 -0.30702078
0000a0 76 56 99 be 8e 0c df be 80 f5 91 3d 40 4d 56 3d
       -0.29948777 -0.43564266 0.071269035 0.052319765
0000b0 a0 5c db 3d 94 2f d4 3e c0 04 94 be 56 f7 ac be
       0.10711026 0.4144255 -0.28909874 -0.33782452
0000c0 c2 2d cb 3e 62 e6 e9 3e 1e d2 c2 3e b0 55 47 3d
       0.39683348 0.4568358 0.38050932 0.048665702
0000d0 a0 12 5e be 14 d9 8e 3e 00 5e cd 3b a8 9a 87 3d
       -0.21686792 0.27899992 0.006267309 0.06621295
0000e0 3c fa d3 be 8a b8 e5 3e 3a 52 f8 be 36 5c e9 3e
       -0.4140185 0.44867355 -0.48500234 0.45578164
0000f0 8e 6b 99 3e 88 72 e8 bd 5c 96 fc be 14 b5 05 be
       0.2996487 -0.1134997 -0.49333465 -0.13057357
