wandb_tmp/model.pth (torch, 925624 bytes, 30 tensors)

encoder.conv1.weight f4 [20, 10, 2]
000000 3c ea 9c bf a6 0c d3 be 16 40 53 3e 18 8b d1 be
       -1.2258983 -0.41220587 0.20629916 -0.40926433
000010 0c e5 80 bf 90 65 02 3d 4d 1e 9c bf 1f c9 12 3e
       -1.00699 0.03183514 -1.2196747 0.14334534
000020 28 30 1d bd a3 8d 88 be 4c 5c 19 bf 7a 55 3c 3e
       -0.038376004 -0.2667056 -0.5990646 0.18391982
000030 01 bf df bf e0 6f 48 3e 2e 90 0e bd 1b dc ae 3e
       -1.7480165 0.19573927 -0.03480547 0.34152302
000040 ae 95 06 3e 29 ee 27 bd 82 59 c3 bd 95 a6 04 3f
       0.13143036 -0.04099861 -0.09538557 0.51816684
000050 bb 60 a2 be 61 51 ff 3b ac aa 1a 3e 92 40 39 3c
       -0.31714424 0.0077916835 0.15104169 0.011306899
000060 45 74 a0 3e 93 2a c8 3c d9 a4 8a 3e c4 bf 50 bc
       0.31338707 0.024434363 0.27078894 -0.012741033
000070 fd a8 bc be 84 a4 35 bd fe 93 1d be 58 b9 35 3d
       -0.36847678 -0.044346347 -0.15388486 0.04436621
000080 a0 2d 43 be c6 6e 91 bd 34 f4 b0 be d4 4b f6 3c
       -0.19060373 -0.071012065 -0.34561312 0.030065455
000090 84 5c 93 be a1 d1 4e 3e ba d6 3f 3d 64 b3 fa 3b
       -0.2878152 0.20197155 0.04683564 0.0076507796
0000a0 a0 0b 86 be 0b cd 06 3e d5 6d 82 be 4b d7 a3 bd
       -0.26180744 0.13164155 -0.2547442 -0.08000048
0000b0 e1 ae d0 3e 59 68 c4 be 7f fe 25 3e ca 71 6e 3d
       0.40758422 -0.3836086 0.16210364 0.058213986
0000c0 eb 44 9d 3d 6d a4 2f bd de 6c f1 bc 24 b9 cb 3d
       0.07679161 -0.042881418 -0.029470857 0.09947422
0000d0 6e ee b3 bd f4 49 3a bf 57 bf 92 be 78 7a fa be
       -0.08785711 -0.72769094 -0.28661606 -0.4892156
0000e0 70 ab ad bb a7 5a c1 bd 69 c6 1f 3b 15 1e 82 3d
       -0.005299978 -0.09441119 0.0024379736 0.06353394
0000f0 ef ca 99 be 8f f8 0d 3e f9 d6 94 be 48 c6 a7 3d
       -0.3003764 0.13864349 -0.2907026 0.08192116
000100 8a a0 72 3e 47 6e b1 be 43 84 0a be 8e 30 75 be
       0.23694053 -0.34654447 -0.13527016 -0.23944303
000110 9a e1 6d be 05 6a aa bd c1 04 ae 3e e5 9d 02 bf
       -0.23230591 -0.08321003 0.33988002 -0.5102218
000120 da 12 9f be 11 73 8c be 8a b9 95 be 96 7e 72 3e
       -0.3106907 -0.2743154 -0.29243118 0.23681101
000130 6b 88 44 be 6d d1 2b bc 93 73 40 3c 01 ec 60 3c
       -0.19192664 -0.010486943 0.011746305 0.013728143
000140 41 d0 81 3d 5f 29 78 be 2d 36 a5 be 0a d2 8e ba
       0.063385494 -0.24234532 -0.32267895 -0.0010896337
000150 32 cd 26 3d 37 1a 3d bd 48 39 67 3e 2d 1e b7 3d
       0.040723033 -0.04616758 0.22580445 0.089413024
000160 ba 7c ee 3d 67 3f ac 3d a7 05 bc 3d a5 fe c7 3c
       0.116448835 0.084105305 0.091807656 0.024413416
000170 cc b1 92 3e 13 a1 29 3e 0b f2 87 be 33 07 db be
       0.28651273 0.16565351 -0.26551852 -0.4277893
000180 02 ca 5e bb ff 1e 2a be 82 41 a7 3d c7 09 aa bd
       -0.0033994918 -0.16613387 0.081667915 -0.08302646
000190 fa c5 12 bf 34 8b 0d be d2 1d a9 be f4 ea fe 3c
       -0.5733334 -0.13822633 -0.33030564 0.031117894
0001a0 4a 22 32 be 4b a7 97 be 78 9a 03 bf 85 e3 4c 3d
       -0.17395893 -0.29619822 -0.51407576 0.050021667
0001b0 68 a7 ed 3d 9a c6 0a 3e 03 a9 22 3e bd cf a7 3d
       0.11604196 0.13552323 0.15884785 0.0819392
0001c0 b1 95 9f be ca f5 2e 3e e7 b7 86 3e 24 2a 52 be
       -0.31168893 0.17085949 0.2631218 -0.20523888
0001d0 64 2b 81 bd ef 6b 01 bf e7 02 90 3d ea 50 0e bd
       -0.06307104 -0.5055532 0.070318036 -0.034745134
0001e0 2a 35 bb 3e 6f 4a 8f bd 42 fd 92 be 38 58 0f be
       0.36563998 -0.06996619 -0.28708845 -0.13998497
0001f0 a4 03 9f 3d 12 51 41 bd 82 b8 a4 be 43 13 88 bd
       0.07764366 -0.047196455 -0.32172018 -0.06644299
000200 aa 85 c3 3d 18 bf aa bd e4 9c 82 3e 85 24 28 3c
       0.09546979 -0.083372295 0.25510323 0.010262613
000210 c6 49 ab be e7 d0 62 be ce f1 ac be aa 2e ec 3d
       -0.33454722 -0.22150002 -0.33778232 0.11532338
000220 66 4d 6c 3d 98 72 9d bd 1c 1c 83 3d 85 71 23 3e
       0.057691 -0.07687873 0.06401846 0.15961273
000230 34 cc 95 3e ce dd f3 3d f7 a7 1b 3e 98 85 ae 3c
       0.29257357 0.1190754 0.15200792 0.021303937
000240 13 d3 3e 3c 4d 77 d7 3c 13 f0 53 be b3 03 24 bd
       0.011647004 0.026302004 -0.2069705 -0.04004259
000250 f4 3d bc be 30 cd dc be 40 a0 46 be 88 79 38 3e
       -0.36766016 -0.43125296 -0.19397068 0.1801511
000260 8b 13 41 be e5 f6 95 be 3a f8 25 be de 90 05 be
       -0.18855111 -0.29289928 -0.16207972 -0.13043544
000270 c1 80 8d be 9b a6 8c be b7 be f4 bc 80 5a 1d 3c
       -0.27637294 -0.2747086 -0.029876096 0.009604096
000280 af 24 c5 bd d4 ac 9a be d4 0a 6d bf 44 a1 08 be
       -0.096261375 -0.30209982 -0.9259465 -0.13342768
000290 4f 8a 8b 3e 92 9e 08 be 4b fc 0c bf 60 b7 9c 3d
       0.2725396 -0.1334174 -0.5507247 0.076521635
0002a0 d5 9f 8e 3e 15 50 0e be 2c 17 a5 bf 6f 00 09 3e
       0.27856317 -0.13897736 -1.2897696 0.13379072
0002b0 ad 74 66 bf 0b d6 a8 ba 55 59 82 3e ad a3 b6 be
       -0.90021783 -0.0012881173 0.2545878 -0.3567175
0002c0 fe 52 82 be 67 8d 4b 3e 47 29 2f 3e 29 c1 b7 3e
       -0.25453943 0.1987816 0.1710559 0.35889557
0002d0 a6 d8 52 3e 5c 78 44 3d d2 7f 11 bf ad a3 83 3c
       0.20590457 0.047966346 -0.56835663 0.016069258
0002e0 c8 13 8c 3e ca 86 a5 3c 84 91 56 3d 43 cd f4 3c
       0.27358842 0.020205874 0.05238487 0.029883033
0002f0 ad 9e 46 be 59 28 7c 3c bb ee 96 3d 80 27 6d 3d
       -0.19396468 0.015390479 0.07369753 0.057899
000300 48 95 9d 3e 8a 02 d6 bd ee b6 f9 bd 03 97 2f 3c
       0.30777955 -0.10449703 -0.12193094 0.010717156
000310 af 7e 7e be 38 9c 6e bd 38 84 12 3e 37 f1 59 3c
       -0.24853013 -0.05825445 0.1430825 0.013302139
000320 48 5e 31 bf 6d f2 f8 be 96 a4 47 3e 02 f3 2d 3e
       -0.69284487 -0.48622456 0.19496378 0.16987231
000330 3a af 4e 3d 31 4f 92 bc 5c f8 6f bd 90 4b 10 3e
       0.050460078 -0.017860027 -0.058586463 0.14091325
000340 e3 15 1f bf e5 8f aa 3e 91 09 a6 3e f6 02 97 3d
       -0.6214277 0.33312908 0.32429174 0.07373612
000350 6d 4a ba be db 7b 5c 3e 88 95 b8 be 9d a9 fc be
       -0.36384907 0.21531622 -0.36051583 -0.49348155
000360 76 b2 44 be a1 a0 7a bd f2 05 91 3a 08 a4 ae bd
       -0.19208702 -0.061188344 0.0011064394 -0.0852738
000370 86 42 0e 3c 12 f8 07 be 3c 90 6a 3d 67 fb b8 bc
       0.008682853 -0.13278225 0.05726646 -0.022580815
000380 81 3c ca 3d 26 01 87 3d 45 45 24 be 3b a1 d8 3d
       0.098748215 0.06592016 -0.16042049 0.10577627
000390 4b 43 4c be 7a 46 87 bc 90 d6 83 3d 21 b5 33 3d
       -0.19947545 -0.016513098 0.06437409 0.04387391
0003a0 70 a9 7a be 00 2a 05 bd e5 30 b4 bd 78 18 a5 bd
       -0.24478698 -0.032510757 -0.087983884 -0.08061308
0003b0 5f 71 41 be fc dc 74 bc c1 8b ce 3d ac e0 34 3d
       -0.18890904 -0.014945265 0.1008525 0.044159576
0003c0 d9 7b c2 3d 5e 97 b5 3d 66 6b 08 be 6e 6d 51 bd
       0.09496278 0.088667616 -0.13322219 -0.05112975
0003d0 0d c7 2a be 87 d2 d6 bc bc 28 d1 be 7a 1e d1 bd
       -0.16677494 -0.026223434 -0.4085139 -0.10210891
0003e0 44 40 02 bf 27 f4 10 be d9 9a 95 be 84 fa 03 be
       -0.5087931 -0.14155637 -0.29219702 -0.12888533
0003f0 c1 03 d7 be 19 53 c5 be 60 87 fd 3d cb 9c b5 3d
       -0.41995052 -0.3853996 0.12379336 0.088677965

encoder.conv1.bias f4 [20]
000000 d3 e0 3a be 8b 11 50 3d a1 4e 33 be bb 08 62 be
       -0.18249826 0.05079798 -0.17510463 -0.22073643
000010 25 3b 69 be 02 49 69 be dc 8e 0c be 67 db 6f bd
       -0.22776468 -0.22781757 -0.13726372 -0.058558848
000020 e2 98 57 be b2 c6 af 3c c6 a5 65 be 6d 39 66 be
       -0.21054414 0.02145705 -0.22426519 -0.22482844
000030 09 de 12 3e 7d 9c 1e be bf 00 63 3d 14 0f 88 bd
       0.14342512 -0.15489383 0.055420633 -0.06643501
000040 a3 a7 81 be 06 d4 65 be 76 05 ca bd 92 8a e1 be
       -0.2532321 -0.22444162 -0.09864323 -0.44051033

encoder.conv2.weight f4 [10, 20, 3]
000000 d7 00 0d bb f6 0b 7e 3d 53 cb f8 3c 60 18 c5 be
       -0.0021515393 0.062023126 0.03037039 -0.3849516
000010 c4 a4 1c be 48 13 83 3d 48 f0 a8 3d 82 ad 84 bf
       -0.15297228 0.06400162 0.08248955 -1.036545
000020 1c 4c ae 3c ff 31 d6 bf 78 01 5b bf 27 31 8b 3d
       0.021276526 -1.6734008 -0.85549116 0.067964844
000030 6f 68 c9 3d fe 5c 1a bd 82 4f 0b bd 32 a8 e1 3d
       0.09834372 -0.03768634 -0.03401137 0.11018409
000040 c7 52 2d 3e 42 55 15 bd 99 65 05 be a7 53 ab be
       0.16926108 -0.03645826 -0.13027038 -0.3346226
000050 00 52 ed 3d 90 cc 16 bf 6c 05 ec bd 85 e1 01 3d
       0.11587906 -0.5890589 -0.11524472 0.031709213
000060 1f ae ab bc 88 9f 52 be 0b 1e 93 3d be ad 93 3c
       -0.02095705 -0.20568669 0.071834646 0.018027183
000070 87 27 1b 3e 85 63 0e bd 2c 22 01 3e 43 2e f3 3e
       0.15151797 -0.034762878 0.12610692 0.47496232
000080 47 b9 13 3e d4 58 ba ba 06 f8 00 be 71 5c c0 bc
       0.14426146 -0.0014217147 -0.12594613 -0.02348158
000090 19 d4 d1 be 42 e9 41 3e 4a 19 34 3d c1 75 3b 3c
       -0.4098213 0.18936637 0.04396943 0.011441649
0000a0 50 a8 05 3e 4a 21 a9 bc b2 5d a0 bb af fc d2 be
       0.13052487 -0.020645756 -0.004893982 -0.41208407
0000b0 dc 4a 66 3d 0b 61 0d 39 e6 c8 84 be f5 ba bd 3c
       0.056223735 0.00013482959 -0.25934523 0.023160437
0000c0 77 2a a9 3e 1a 5b 76 bc 7b e5 42 bd 68 bd 8d 3e
       0.3304021 -0.015036369 -0.04758213 0.27683568
0000d0 16 8b 0a 3e c3 7a 51 bd 63 dc 00 bf 8f 43 2c bd
       0.1352962 -0.051142465 -0.50336283 -0.042056616
0000e0 82 b9 6d bd 6c 99 26 be 42 0c b9 3d 6b be 5e be
       -0.058038242 -0.16269463 0.09035541 -0.21752326
0000f0 a7 3a 69 3e 87 2c e8 bd 71 15 09 3d d8 cd e4 3e
       0.2277628 -0.11336618 0.033467714 0.44688296
000100 05 1f e0 be cf bb ed bc 46 e4 82 bf 63 9a 84 3e
       -0.43773666 -0.029020218 -1.0225914 0.25899038
000110 3d b0 79 be 2f e4 7c bf 95 53 d5 3d f2 db e2 be
       -0.24383636 -0.9878568 0.10416333 -0.4430843
000120 8e 37 76 be b1 1a 56 3e d0 8f a2 3c c8 c0 8b bf
       -0.2404463 0.2090862 0.019843966 -1.0918207
000130 f1 f3 9f 3e 85 4b 83 be 53 8e 54 c0 32 b1 57 3d
       0.312408 -0.25643554 -3.3211868 0.05265922
000140 30 1e 96 be a8 29 13 c0 50 60 8f be 2a c2 a7 bd
       -0.29319906 -2.2994175 -0.28003168 -0.08191331
000150 4c 8a 01 bf eb 2f a9 3d b0 01 4b be 57 28 3b be
       -0.5060165 0.08261093 -0.19824862 -0.18277107
000160 98 b0 83 be a5 6f 54 3e 3d 4e 3e be 0d a7 22 be
       -0.25720668 0.20745714 -0.18584533 -0.15884037
000170 82 7d fa 3e d5 e8 81 3d 30 80 b1 3d 68 89 12 3c
       0.4892388 0.06343237 0.08667028 0.008943893
000180 42 09 a1 be 68 01 b0 bd 46 25 79 be 9c 1a 9c bf
       -0.31452376 -0.08594018 -0.24330625 -1.219562
000190 dc 14 2f 3c f3 38 de 3d 6d d3 8c be 16 26 70 bd
       0.010686126 0.10850706 -0.27505055 -0.05863007
0001a0 ff ff cf bd 97 a2 b9 be c1 e1 9c be 24 d1 b8 bd
       -0.10156249 -0.3625686 -0.30640987 -0.090242654
0001b0 f1 97 27 3e 64 26 8f be 78 14 53 3e a9 aa e0 3e
       0.16366555 -0.27958977 0.20613277 0.43880203
0001c0 d4 79 20 bd 99 24 af 3e cb e3 04 3e f6 fe aa 3e
       -0.039178684 0.3420761 0.12977521 0.33397645
0001d0 42 78 bc bd f1 ea ae 3e 11 6c c8 bd 55 d2 a9 be
       -0.09202625 0.3416362 -0.09786237 -0.33168283
0001e0 cc 29 9c 3d 38 b3 de bb 24 0c 36 3d 54 4f 40 3e
       0.076251596 -0.006796267 0.044445172 0.18780261
0001f0 dc e3 19 3d 91 3d 8e 3d 53 3b 30 bf 27 c8 84 3d
       0.03757082 0.069453366 -0.6884052 0.064834885
000200 9e 74 c5 3d 27 80 2d 3f 43 ac fa 3e a4 5c 83 3e
       0.096413836 0.6777367 0.4895955 0.25656617
000210 ca d9 bc 3d 78 7b d9 bd a2 58 8b be 61 fe de bd
       0.092212275 -0.10619253 -0.2721606 -0.10888363
000220 35 11 e5 be 32 fc 1f 3d 56 9e e4 bd f9 7e e4 3d
       -0.4473969 0.03905887 -0.11163013 0.111570306
000230 85 74 1f 3e 69 f2 13 3e 08 16 96 3d 0c ef f2 3d
       0.15571792 0.14447941 0.07328421 0.11862001
000240 5c 28 6e bd 56 06 26 be d0 c1 8b bd ec 56 a2 bd
       -0.05814396 -0.16213354 -0.06824076 -0.07926735
000250 6e 9b 01 be 18 07 0c bd 11 8e d8 bd 4a 79 55 be
       -0.12656948 -0.034186453 -0.10573972 -0.2084705
000260 c5 01 ec bd 5d 85 2e bd ab 7a 0c 3e 26 7f 83 3d
       -0.11523775 -0.042607654 0.13718669 0.06420736
000270 50 0c 3b bd 7e e7 00 3c 7a c0 2c bd 8a 51 6a bd
       -0.04566604 0.007867692 -0.042175747 -0.057206668
000280 2f 8f 0c be 2c 15 c1 3c ec 47 8b 3c 43 07 c0 3d
       -0.13726495 0.023569666 0.017002068 0.09376385
000290 5c cb b2 3d 34 d8 87 3e 31 a5 99 3c e9 dd 61 bc
       0.08730194 0.26532137 0.018755527 -0.013785818
0002a0 77 71 2c bf e0 74 e4 be 47 97 11 be 5e 1c bb bf
       -0.67360634 -0.4462042 -0.14217864 -1.4618032
0002b0 2a c2 b8 be 57 95 91 bc d3 df a2 3e 4c 10 e2 3c
       -0.36085635 -0.017771406 0.3181139 0.027595662
0002c0 f2 02 d9 3d b3 0c 85 bd 71 23 91 be 06 03 4f 3e
       0.10596265 -0.06496563 -0.28347352 0.20215997
0002d0 b7 c6 c8 3c b7 3d 02 3c dc 40 96 bb 40 00 05 3e
       0.024508817 0.007949284 -0.0045853686 0.12988377
0002e0 f0 7c 51 be 81 61 b9 3c 88 c6 65 3e 4e cb 96 3d
       -0.20457816 0.022629501 0.22439015 0.07362996
0002f0 05 26 f4 3c 5c 3e 44 3d 9c cd ad 3d e2 b7 19 3d
       0.029803285 0.047911033 0.084864825 0.03752888
000300 04 ec 1a bc 38 c6 86 bd 37 1c 77 3c 71 cb a4 3d
       -0.009455685 -0.06580776 0.015082411 0.08046616
000310 47 5f 0d 3e 03 20 2a 3c a0 87 39 3e 4b a9 2b be
       0.13805877 0.010383609 0.18118143 -0.16763799
000320 97 c9 d5 bc 43 d0 cc 3d 5d c2 a6 bd c1 f1 45 3b
       -0.026097102 0.1000066 -0.081425406 0.003020391
000330 80 44 f0 3d 48 f6 4e bb ad 73 28 3b 5b 0d 0a 3e
       0.11731815 -0.00315799 0.0025703714 0.13481657
000340 f3 7d 25 3e 4a 67 bf 3c 27 43 00 be 84 44 4c bd
       0.16161327 0.023364682 -0.12525617 -0.04987003
000350 19 cc bf bc 25 97 96 bd 8e 78 48 bd 54 25 84 3d
       -0.023412751 -0.07353047 -0.048943095 0.06452432
000360 6f 1c 59 3e f9 1c c0 3d e1 03 86 bb df 11 a0 3c
       0.21202253 0.09380526 -0.004089818 0.019539772
000370 f6 1a b1 3e c4 c1 16 3d 82 cc c1 bd cc 33 82 be
       0.34590882 0.036805883 -0.09462835 -0.25430143
000380 e7 de da 3c 7f 44 a3 3e c8 09 b9 bd 3e ff d1 bc
       0.026717616 0.31888196 -0.09035069 -0.025634404
000390 74 dd b1 bd 79 e1 43 be 3a f4 8d bc f9 4d 50 bd
       -0.08684817 -0.1912898 -0.01732837 -0.05085561
0003a0 35 ed 60 bd 07 97 bb 3c d1 f6 37 3d dc f8 d6 3d
       -0.05491372 0.022899164 0.044913117 0.10496685
0003b0 20 da 00 3d c3 bf 55 be ba 86 ed bc 8f 95 3f 3d
       0.03145802 -0.20873933 -0.028994907 0.04677349
0003c0 75 91 98 bc 82 fa ca bb a6 f9 36 3c 8e 30 d4 bd
       -0.018624047 -0.0061944136 0.011167919 -0.103608236
0003d0 d7 56 15 3b 53 4a fd 3b 45 4b 9b be 28 02 64 3d
       0.0022787356 0.0077298074 -0.30330864 0.05566612
0003e0 8b 5e fa bc 74 f9 81 ba 14 bb cc bd 29 83 9a bd
       -0.03056266 -0.0009916262 -0.0999662 -0.07544548
0003f0 9b cc f4 3d 4d 9c 4d 3d 10 bf cd bc 0f 49 eb bd
       0.11953088 0.05019789 -0.02511552 -0.11488544

encoder.conv2.bias f4 [10]
000000 ef 2f ee 3a 29 0c ae bd fd 6e 4d bc b6 dc 7d 3c
       0.0018172244 -0.08498413 -0.012538669 0.015494516
000010 40 e1 0c 3d a6 b1 15 bd 25 c9 ec bc d2 45 ff 3c
       0.034394503 -0.036546372 -0.028904507 0.031161223
000020 9e 3a d2 bd 15 e5 ab 3d
       -0.102650866 0.08393303

encoder.conv3.weight f4 [10, 10, 4]
000000 85 ec 6c bd 58 74 78 3c a2 3e a7 3c e2 2f d3 3c
       -0.05784275 0.015164457 0.020415608 0.025779668
000010 d8 2c 53 3d a6 e7 1d 3d c9 d6 6d 3c 7f c2 fc 3c
       0.05155644 0.038550995 0.014516541 0.030854462
000020 de 2a 22 3e 7e 64 88 3b 29 b5 57 3d d8 6f e8 3c
       0.15836665 0.00416237 0.052663002 0.028373644
000030 ef ee a1 3e d2 18 e0 3c fc e0 13 3d 0d ec 73 3c
       0.31627604 0.027355585 0.036103234 0.014887822
000040 03 08 6d bd bb f6 df bc 46 5a 96 3b 4e 38 30 3c
       -0.05786897 -0.02733933 0.004588398 0.010755612
000050 eb 46 ea bd c4 94 55 bd 78 16 ea bc be 39 43 bc
       -0.11439308 -0.052143827 -0.028575167 -0.011915622
000060 8e a7 88 3d 75 0a fa bb 62 96 9a bc f4 c1 6a bc
       0.066725835 -0.007630641 -0.018870536 -0.014328469
000070 cb 10 0b 3e 86 1c 1b 3d 0a 0d 47 3d 6c a5 ab bd
       0.13580625 0.037869 0.04859642 -0.08381161
000080 8b f9 b5 bd 73 2c 1a 3d 80 a9 01 be fe a7 1b be
       -0.08885487 0.037640046 -0.12662315 -0.15200803
000090 c8 ce 86 3d 25 fa e5 bc c1 e5 af bb f5 de cf bc
       0.06582409 -0.02807338 -0.005367965 -0.025374869
0000a0 23 cb 40 bd b9 bd fa 3c 96 37 ab 3c b5 e9 8e 3c
       -0.047068726 0.030608045 0.020900529 0.017445425
0000b0 8c 70 fb bb 68 42 39 3d 53 a3 f6 3c fa b8 f5 3c
       -0.0076733287 0.045229346 0.030107176 0.02999543
0000c0 fd 29 c7 3d bd 8b f3 3c ff da 40 3d eb d3 9d 3c
       0.097248055 0.029729718 0.04708385 0.01926609
0000d0 81 cd 50 3d 33 37 90 bc 88 c2 9b 3c e7 ee 54 3c
       0.050977234 -0.017604446 0.019013658 0.012996412
0000e0 fa 5f 73 3e 46 71 43 bc 95 b3 44 bc 87 7d a3 3b
       0.23767081 -0.011928862 -0.012005706 0.0049893293
0000f0 be 4e 9b 3e 8b 40 1d 3d bb 80 da 3c 83 c8 b5 3b
       0.30333513 0.03839163 0.026672712 0.0055475845
000100 27 84 8f 3d 5d 8c b5 bc be f5 8d bc c0 a8 53 3b
       0.07007628 -0.022161657 -0.017329093 0.0032296628
000110 63 db 86 bb 0c 13 13 3d 92 7e 8d 3c 37 51 24 bc
       -0.0041155084 0.035906836 0.017272267 -0.010029129
000120 94 51 bb bd b5 7d 08 3e e0 57 e6 3d 19 dc 97 3a
       -0.09146419 0.13329203 0.112472296 0.001158598
000130 41 96 ce bd 07 4f b9 bb 9b aa da bb e7 08 d9 3b
       -0.100872524 -0.0056551727 -0.00667317 0.0066233757
000140 8b 65 d7 bc e1 f9 d6 bd 08 ad a0 3d d5 b6 1c 3e
       -0.026293537 -0.10496879 0.07845503 0.1530412
000150 d7 12 2e bc 96 6c 19 be 40 66 58 3c 4e f6 e8 bc
       -0.010624609 -0.14982828 0.013207972 -0.02843776
000160 1b 33 17 3d 86 15 23 3d a4 16 d6 bd 15 36 4f bd
       0.036913972 0.03981545 -0.10453537 -0.050588686
000170 18 dd c2 3c 35 b7 63 3d 6a 18 4a 3d 2e 00 3c be
       0.023787066 0.05559464 0.04933969 -0.18359444
000180 84 c0 0e bd 4f aa a2 bd 52 5a a2 3d 8e 2c de bd
       -0.034851566 -0.0794264 0.079273835 -0.10848342
000190 40 5d b9 bd e6 8e 4c be d4 97 98 bd 94 fc b0 bd
       -0.09050989 -0.19976386 -0.07450834 -0.086419255
0001a0 c3 63 bd bd db 08 ee bd d0 2c 2d be b7 1d 8a 3d
       -0.09247544 -0.11622783 -0.16911626 0.06743949
0001b0 f7 71 53 bd e3 3e 1f be fb 2e a1 3b d1 63 66 3d
       -0.051622357 -0.15551333 0.0049189306 0.056247536
0001c0 4e 5d 53 bc 0c 21 75 3d 7f 7e 72 3d b3 6a 9b bd
       -0.012900664 0.05984597 0.059202667 -0.07588711
0001d0 3c 13 56 be 26 50 84 3d 14 ec 61 be 37 39 37 be
       -0.20905775 0.064605996 -0.22062713 -0.1789292
0001e0 0d 0e 9c be 2e f8 d6 3d f1 1e bb 3c de e7 ab 3a
       -0.3047947 0.10496555 0.022841902 0.0013115366
0001f0 70 d7 1d 3f d4 07 ad 3e f0 7b 2c be 56 40 49 bc
       0.61656857 0.33795035 -0.16844153 -0.012283405
000200 35 85 17 be 36 81 bb be 9c 4b f4 3c 8d 6a d7 bd
       -0.14796908 -0.36622018 0.02982121 -0.1051837
000210 a2 4c f6 3d db bb b4 3d 20 77 80 3d c2 44 94 bc
       0.12026335 0.08824893 0.06272721 -0.018099193
000220 fa 96 d2 3d 15 e6 27 bd a6 1c 6c 3c ec db cd bc
       0.10282703 -0.040990908 0.014411127 -0.025129281
000230 d6 c0 37 be fe 0e 0c bd 5d 59 99 bd f7 76 b5 bc
       -0.17944655 -0.034193985 -0.07487748 -0.022151453
000240 68 35 a5 3e 94 aa 08 3e 27 d2 19 be 01 1b a0 bc
       0.32267308 0.1334632 -0.15021573 -0.019544126
000250 1d f5 9e bf eb d9 31 bf b5 ec 63 be c7 85 8b 3d
       -1.2418553 -0.6947314 -0.22258265 0.068126254
000260 2d ac 16 3e 12 f7 63 bd 0f 3d 8d bd c7 6b f3 bd
       0.14714117 -0.055655546 -0.06896412 -0.11885791
000270 5d 7c 22 be b1 b3 96 bd 6f fa 21 3d 3c ca 2b bd
       -0.15867753 -0.07358492 0.039545473 -0.041940913
000280 07 96 f0 3d 7d 74 e1 bc fc ad ca bc 18 ad a5 39
       0.117473654 -0.027521366 -0.024741165 0.00031600217
000290 9a de 06 be 51 47 45 be 1a 88 89 ba f4 db 52 bc
       -0.13170853 -0.19265486 -0.0010492832 -0.012869824
0002a0 f9 c3 96 be ac cd c7 3d d3 80 b9 bc 8a a7 99 b9
       -0.2944639 0.09756026 -0.022644436 -0.0002930726
0002b0 22 37 1a 3e 46 b9 84 3d b6 17 67 bc 5a 74 ad 3b
       0.15060094 0.064806506 -0.014104774 0.005293411
0002c0 57 1c 56 3e 11 b6 f5 3d 77 b2 f1 bb ac 7e 6d bc
       0.20909248 0.11997617 -0.007376011 -0.014495533
0002d0 ed 5b 5d 3d a9 62 15 be 6a 38 4a bd d3 12 a6 3c
       0.054042745 -0.14588417 -0.049370207 0.020272648
0002e0 c3 0b 79 be 2e d0 8c bc 39 a7 7e 3c ff 12 03 bc
       -0.24320893 -0.017189112 0.015542799 -0.0080001345
0002f0 49 9e 1b 3e 47 0c 4c 3e ee 0c 3b bc bd 59 89 3d
       0.151971 0.19926558 -0.011416657 0.06706569
000300 59 04 69 bc f9 ca 27 bc 21 5d b7 3b 44 98 de 3c
       -0.014222228 -0.010241264 0.0055958186 0.027172215
000310 46 74 51 3e c7 2b f4 3c a6 5a 16 bd 19 f2 b8 3c
       0.20454511 0.02980603 -0.036707543 0.022576379
000320 31 5f e9 bd ee ae 0f be b4 c6 80 bc 9e cc 1a be
       -0.113951094 -0.14031574 -0.015719749 -0.15117118
000330 2b 9e 98 3d 2c b3 15 be ed db c6 bd c5 34 1b be
       0.07452043 -0.1461913 -0.09709916 -0.15156849
000340 2b 90 9b bc d1 0b e8 bd 01 d0 eb bd e9 83 c7 bc
       -0.018989643 -0.11330379 -0.11514283 -0.024354892
000350 86 50 23 3d a1 5f 79 3d 69 0c d7 bd ac 32 4f be
       0.039871715 0.060882214 -0.10500414 -0.20234174
000360 28 47 08 3b b0 19 3a be 9a 4e a4 bd 77 e7 0c be
       0.0020794366 -0.18173862 -0.080228046 -0.13760172
000370 ef cb c5 bc 94 72 ea bc fa 8a 11 be 88 f1 5d be
       -0.024145095 -0.028619088 -0.14213172 -0.21674168
000380 88 ec 1d be d6 36 4d 3c 5e 9a 67 3d c8 95 9b bd
       -0.15422261 0.012525281 0.0565437 -0.07596928
000390 c3 a3 7e 3d f9 80 94 bd 13 f2 a8 bc b7 89 85 bd
       0.062167894 -0.07251162 -0.020623242 -0.06520408
0003a0 81 6d a6 bd f5 cb 19 3e a6 ab f1 3d d7 f2 a5 3d
       -0.08126355 0.1501921 0.118003175 0.08102959
0003b0 a8 fd 32 be b9 3f 84 bd 03 f3 21 be 0d c5 25 be
       -0.17479575 -0.06457467 -0.15815358 -0.1618845
0003c0 b1 d6 60 be a4 ac cc 3d d3 d5 10 bd d8 dd 91 3c
       -0.21956898 0.09993866 -0.03536017 0.017805979
0003d0 79 5c 24 be 1f d6 1d 3d e6 5a a4 3d 4a 7a de 3c
       -0.160509 0.03853428 0.0802515 0.027157921
0003e0 d8 ba 80 3d e7 2c 68 3c 7f 27 cc 3d 80 37 ee 3c
       0.062856376 0.014170862 0.09968471 0.029079199
0003f0 b0 48 25 be 24 3c ba bd 4a 58 32 3d 59 2a cd 3b
       -0.1614101 -0.09093502 0.04354123 0.0062611517

encoder.conv3.bias f4 [10]
000000 cf 8a 74 bb 0b 61 d9 bb d9 e1 c5 bd a2 01 63 bc
       -0.0037314182 -0.006633883 -0.09662218 -0.01385537
000010 41 b3 53 bc ac 59 30 be 42 05 e9 bb 35 34 6c bc
       -0.012921155 -0.17221707 -0.0071112225 -0.014416744
000020 f7 89 9f bc 11 fd 41 bd
       -0.019474966 -0.047360484

encoder.linear.weight f4 [128, 90]
000000 99 d2 93 3c 20 72 36 bd ba 5e 4a bd 5f 42 bb 3c
       0.018044757 -0.04454243 -0.049406745 0.022858797
000010 bc 29 98 bd 00 b2 e9 bd 6f 25 04 3d 7a b8 33 bc
       -0.07429835 -0.11410904 0.032262262 -0.010969276
000020 74 e5 b4 3c 59 50 15 3d e7 cb eb bc ae 64 55 3d
       0.022082068 0.03645358 -0.028783752 0.05209797
000030 f5 be 43 bd 3c 7e ae bd 4d 5c 62 bb a5 47 8e 3d
       -0.047789533 -0.08520171 -0.0034539879 0.06947259
000040 e8 54 06 3d 5d 24 a6 bc b3 6c 04 3d bf 9f f2 bc
       0.032795817 -0.020281011 0.032330226 -0.029617188
000050 2e af ae 3d 7d a0 4b bd 24 73 cd 3d 44 73 11 3d
       0.085295066 -0.0497136 0.10031727 0.035510316
000060 ba 61 73 bb 8a 68 85 bd ab 50 ba 3d dc 1a f3 bd
       -0.0037137107 -0.0651408 0.090974174 -0.118703574
000070 1e 4c 7b bd 87 1f 85 bd ff 47 6e bd 6e 91 3f 3c
       -0.061351888 -0.06500154 -0.05817413 0.011692388
000080 6f 51 01 be b7 88 a2 bc e9 5e 30 bd 98 75 83 3b
       -0.1262872 -0.019840581 -0.043059263 0.004011821
000090 d8 a8 bd 3c 90 d3 0a be b7 ad c4 bd ee eb ad bd
       0.0231518 -0.13557267 -0.09603446 -0.08492266
0000a0 7c 88 5b bd bf 3b 1f bd 60 a3 5d bd f5 88 2b 3d
       -0.05359696 -0.038875338 -0.054110885 0.04187866
0000b0 86 fa 39 3d 40 eb b9 bd 90 ac cf bd f7 f0 8a bd
       0.045404933 -0.090780735 -0.101403356 -0.06784242
0000c0 66 9d b8 bd 30 13 c7 3d 0f d0 c1 3d b5 db c0 3d
       -0.09014396 0.097204566 0.09463512 0.09416906
0000d0 ef 23 e9 3c 6c af a3 3d ce df 4e 3d a6 0c 54 3d
       0.028459517 0.079924434 0.050506406 0.051769875
0000e0 86 7e 8f bd 5b 96 04 be 25 5b 96 bd da b3 d0 bd
       -0.07006554 -0.12947981 -0.07341603 -0.10190554
0000f0 a4 23 23 bd 89 26 bb bd 9f 61 27 bc 8c f4 78 3b
       -0.03982891 -0.091382094 -0.010216146 0.0037987558
000100 11 88 bd bc 8b 04 ba 3d 1b 10 a9 bd b9 18 c3 bd
       -0.02313617 0.09082898 -0.08255025 -0.095262
000110 74 3c 4f 3d f4 1e 48 3d d6 bd a6 bd 0f 51 a2 bd
       0.050594762 0.048857644 -0.08141677 -0.07925617
000120 05 f0 14 3c 1c ae 1d 3d fe b9 6e 3b f0 88 76 bc
       0.009090428 0.03849612 0.0036426778 -0.015047297
000130 38 ae 8d 3d 00 ee 37 bd bc 4a 84 3c ae bc 17 3d
       0.06917995 -0.04490471 0.016148917 0.037045173
000140 4b 45 8c bd 20 7b e4 bd 9a 72 76 3d 5d 30 a8 3a
       -0.06849154 -0.11156297 0.060167886 0.0012831796
000150 ec d6 9a bc cd 49 ac bd bf e6 81 bd d0 7d 34 bd
       -0.01890131 -0.08412514 -0.063428394 -0.044065297
000160 9a 42 f2 bd be 73 9e 3c 50 b2 a8 3e 23 25 1d bf
       -0.118291095 0.0193423 0.32948542 -0.6138479
000170 f5 29 20 be d6 15 19 3e b5 b3 41 be 01 e3 0a 3d
       -0.15641005 0.14949736 -0.18916209 0.033907894
000180 bc 9e a3 3e 71 93 66 3d 60 1f 74 bd 92 c4 03 3e
       0.31957042 0.056292955 -0.059600234 0.12867954
000190 d4 df b3 3e a3 d8 eb bd cf b8 51 be cc 47 0e 3e
       0.35131705 -0.115159295 -0.20480655 0.13894576
0001a0 e2 e6 97 3d 58 67 de 3c 43 f9 82 3d 7c f1 5e bd
       0.07417084 0.027148888 0.06395199 -0.054429516
0001b0 4f 71 b5 bd bd 29 9b 3d 02 4d 7d 3c e1 b8 2b 3c
       -0.088595025 0.0757632 0.015460255 0.01048109
0001c0 b0 ea 5e 3d a7 e6 bd bc 32 67 c0 bd 4f 3d 12 3d
       0.054423034 -0.023181273 -0.09394683 0.035703
0001d0 64 de 28 bc 15 2d 05 be 58 a9 88 3e 15 6e 8c 3e
       -0.010306928 -0.13005479 0.266917 0.27427736
0001e0 ef d8 ff 3d 50 cf ae bd ea 05 35 3d 48 8e 9c bd
       0.12492549 -0.085356355 0.044195093 -0.076443255
0001f0 e6 97 75 bd a4 da c5 3d 7d d4 0a 3f 6c 00 73 be
       -0.059959315 0.09660843 0.5423048 -0.2373063
000200 c9 04 27 bd be 9d be bd a0 b7 0a 3d 05 a1 31 bd
       -0.040776048 -0.09307431 0.033866525 -0.04336645
000210 e7 ce eb bd 32 79 35 be 2f 70 a2 bc 50 93 0b 3e
       -0.11514073 -0.17722014 -0.019828884 0.13630414
000220 35 74 8a 3c b6 7e be 3d 89 ca d7 3d 3d 71 c9 3c
       0.016901115 0.09301512 0.105366774 0.024590129
000230 56 92 82 bd 38 75 65 3b 6a 19 c9 bd d5 db 90 bd
       -0.063755676 0.0035012495 -0.098193005 -0.0707318
000240 20 ca b5 be 12 4f fc 3d 64 65 8b 3d ee 32 01 3c
       -0.35505772 0.12319769 0.06806448 0.007885678
000250 43 b9 5d 3e 95 9d 8b 3e 02 68 a9 3d 62 d9 6b 3e
       0.21652703 0.27268663 0.08271791 0.23032144
000260 47 54 84 3e 5b 49 13 be e0 75 fd 3d 3f ab b8 3d
       0.2584555 -0.14383452 0.123759985 0.090170376
000270 28 9f 50 bc 59 e0 4c 3d 5a 31 19 3e ca e5 3b 3e
       -0.012733258 0.050018642 0.14960232 0.18349376
000280 91 d5 84 be f9 4c 6b 3f 37 29 8c bd 12 e3 10 3d
       -0.25944188 0.91914326 -0.068437986 0.0353728
000290 38 79 cf 3d 7e 14 74 be 91 25 34 be c4 34 ef 3c
       0.101305425 -0.23835942 -0.17592455 0.029199965
0002a0 1a 25 84 be c8 8d 01 3e 95 16 8a be 42 12 4b 3e
       -0.25809556 0.12651742 -0.26970354 0.19831184
0002b0 92 e2 7b bd 29 63 30 3e b9 5c 91 bd 4a 6d 81 bd
       -0.06149537 0.17225327 -0.070977636 -0.06319673
0002c0 32 3b f1 bc c1 43 83 3d b2 73 9a 3b ca 00 00 bf
       -0.029447172 0.064094074 0.004713499 -0.50001204
0002d0 69 cc 11 3f ce cb 33 be b6 be b6 be c8 58 61 bd
       0.5695253 -0.17558214 -0.35692376 -0.05501631
0002e0 b1 3b cd 3d db 75 8d 3b 9b 43 98 39 be 4a 25 3e
       0.10021151 0.004317028 0.0002904207 0.16141793
0002f0 4e ac cb 3d b4 df 6b bf cd ab 8e be 6f 30 fb bd
       0.09944974 -0.9213822 -0.2786545 -0.12265097
000300 03 ec 21 3d 50 9a 06 3d bd b4 80 3d 55 d5 1a bd
       0.03953172 0.032862008 0.06284473 -0.037801106
000310 23 f4 50 bd 9b 0a b8 3c 64 28 c5 bd 7d ec d0 3c
       -0.051014077 0.022465995 -0.096268445 0.025503391
000320 b4 a7 53 3d 4f 24 b0 3d 15 fb d7 3c 2a 21 bb 3d
       0.051673606 0.08600675 0.026364842 0.09137185
000330 81 65 86 3c bd a3 c2 bd 50 2a 69 3a 39 48 a2 3e
       0.016405823 -0.09503887 0.00088945497 0.31695727
000340 41 16 ff bc f0 0a 22 bc 0e ab 56 3d 8a a6 d2 3d
       -0.031138541 -0.009890303 0.052409224 0.10285671
000350 dd a4 fe 3c a6 7a 77 3d ec a5 8a 3c 87 99 d8 3d
       0.031084472 0.0604197 0.01692482 0.10576158
000360 88 84 f6 bd 4c 00 1f bc 02 5d 0d 3e af 1e 04 3e
       -0.12036997 -0.009704661 0.13805011 0.1290233
000370 b0 7f b2 3c c3 52 23 3d 82 11 66 bd 9f 06 a2 bd
       0.021789402 0.03987385 -0.05616904 -0.07911419
000380 a0 92 e7 3d be 93 5e 3d 70 b1 71 bd 54 4d b9 bb
       0.113072634 0.054340117 -0.05900711 -0.00565497
000390 22 cb 2c 3d c2 aa 0b 3e 23 9f 99 bd 81 ad bd 3d
       0.04218591 0.13639358 -0.07501056 0.09261609
0003a0 7a 40 97 bd 61 03 a9 bd f0 6c 08 bf 3c 98 7c bc
       -0.07385345 -0.082525976 -0.53291225 -0.015417155
0003b0 a3 a5 8c bc f4 84 fe bb d7 46 98 3d 81 63 a1 3d
       -0.017168825 -0.007767314 0.07435387 0.07880307
0003c0 91 6d b2 3d 77 32 a2 3d 15 ef 07 be 8d d2 27 3e
       0.087123044 0.07919782 -0.13274796 0.16388912
0003d0 8f 40 02 be b9 96 e6 bd 06 dd 70 3d 3c 7f d8 ba
       -0.1271994 -0.11259217 0.058804534 -0.0016517411
0003e0 8e b6 d1 3c 0f 38 1e 3e 16 c7 42 3e 89 aa ca 3d
       0.025599744 0.15451072 0.19021258 0.09895808
0003f0 1f 47 cb 3e 6d 72 95 3c c4 68 cf 3d c7 d6 22 3e
       0.397027 0.018243039 0.10127404 0.15902244

encoder.linear.bias f4 [128]
000000 1f 97 a3 bd 33 3c 92 bc 3c 61 a4 3d 8e e0 de bd
       -0.079878084 -0.01785097 0.080263585 -0.10882674
000010 4d 61 ec bd 90 07 71 3b 67 f2 c7 bb e7 c0 76 bd
       -0.11541996 0.003677819 -0.0061018947 -0.06024256
000020 b7 38 d4 ba 2c f0 62 bd 92 f0 03 be ba 50 19 be
       -0.0016191219 -0.055404827 -0.12884739 -0.14972201
000030 08 4d 36 be e1 90 58 bd c2 e4 6b bd 25 58 00 bd
       -0.17802823 -0.052872542 -0.057591207 -0.03133406
000040 72 c7 b1 bd dc 61 4d bd 9d 23 8d bd 25 9a 0d be
       -0.08680619 -0.050142154 -0.06891558 -0.13828333
000050 5c 93 92 bd 4b 06 93 bd 57 e0 b0 3c ad e2 fd 3c
       -0.07157013 -0.07178935 0.021591349 0.030991876
000060 75 be ea bd 74 1c ca bc ec 4b d7 3b 5d 99 de 3b
       -0.11462108 -0.02467177 0.00657033 0.0067931847
000070 d5 96 97 bd ca 6c cd bd 3f d8 8b bd 3d f8 a7 bc
       -0.07401816 -0.100305155 -0.06828355 -0.020504111
000080 a3 85 e6 3c 34 12 c4 bc 4a da eb bb c9 f2 68 39
       0.028139895 -0.023934461 -0.007197653 0.00022215689
000090 99 32 9d bd 3d 32 f4 bd d6 72 61 bd 17 cc 0a bd
       -0.07675666 -0.11923645 -0.055041157 -0.03388604
0000a0 7c 08 73 bd ed 8c 62 3c 71 91 90 bd 3c 55 c1 bc
       -0.059334263 0.013827545 -0.07058991 -0.023600213
0000b0 32 f7 ab bd 8c e3 06 be 0d cf 82 bc 4e 51 86 bc
       -0.08396758 -0.1317274 -0.01596787 -0.016396191
0000c0 d4 01 41 be 85 37 9f bd 3d 83 21 3d bf 38 c5 3c
       -0.18848354 -0.077742614 0.0394318 0.02407491
0000d0 e8 36 34 3d f4 dd f7 bd d4 73 f7 bd 72 7a 89 3a
       0.043997675 -0.12102881 -0.12082639 0.0010488762
0000e0 1d 42 fd bc d5 5f b2 bd d1 23 90 bc 87 da 75 3c
       -0.030915314 -0.08709685 -0.017595204 0.015005714
0000f0 8d d2 37 bd 5f 6f cc 3b 22 95 05 be 95 e7 0c 3d
       -0.04487853 0.0062388624 -0.13045171 0.03440054
000100 59 13 06 be 42 70 55 3c 00 b7 e7 bd 78 35 14 3d
       -0.13093318 0.013027253 -0.11314201 0.036183804
000110 a9 b6 16 be 1a 9f 7a 3c 8c ff ee bd 30 b9 b9 3b
       -0.14718117 0.015296722 -0.116698354 0.005667828
000120 94 43 fc bc 0c 90 b7 bc 4a d9 d1 bd 29 a4 a2 bd
       -0.030793943 -0.022407554 -0.10246523 -0.07941467
000130 c2 d8 07 bc 19 ef f3 bd 36 f8 d5 bd 07 fd b7 bd
       -0.008291425 -0.11910839 -0.10447733 -0.08983808
000140 bc 6c e0 bd da b3 05 bb b4 65 6a 3c 92 5f 4b bd
       -0.109582394 -0.002040139 0.0143064745 -0.04965169
000150 43 e2 b1 bd 6c 86 11 3d 4f 5d d8 bd 28 5c e9 bd
       -0.08685734 0.035528585 -0.10564672 -0.113945305
000160 ec f3 2f bc f5 14 3f bc 17 f4 87 bd b7 e9 70 bd
       -0.010739308 -0.011662711 -0.06638353 -0.058816638
000170 5f 8a 97 bd 63 73 20 be eb 25 46 bd 82 55 12 3c
       -0.07399439 -0.15669017 -0.048376005 0.008931519
000180 0c ae e7 3a e8 1d c2 bd 8b 3e c4 bd 7f 62 ea bc
       0.0017675771 -0.094783604 -0.095822416 -0.02861142
000190 7d 84 84 bb e3 83 0a be 95 9d 1f bd b2 c1 ac bd
       -0.004044114 -0.13526873 -0.03896864 -0.08435382
0001a0 ac 65 da bd 86 ce 60 3c 5e 67 de bd 46 04 82 bd
       -0.106639236 0.013721114 -0.108595595 -0.06348471
0001b0 60 59 8b bc 96 0d 91 3b 1b 77 15 be 26 cf 52 3d
       -0.01701039 0.0044266684 -0.14596216 0.051467083
0001c0 3c 9a c0 3c 76 7a ac bd 93 5c 04 be 1a 17 45 3b
       0.023511045 -0.08421795 -0.1292594 0.0030073584
0001d0 e6 e6 fd bc 06 a2 6d bd 30 e0 0f 3c b4 f7 c2 bd
       -0.03099389 -0.058015846 0.008781478 -0.09519902
0001e0 2e 8c a4 bd 68 3b b0 3c 9d 30 f0 bd 92 af bf bd
       -0.0803455 0.021512702 -0.11728022 -0.09359659
0001f0 fd 3d 39 3d 42 d5 34 be 38 40 2f bd 1a 4a f8 bc
       0.045225132 -0.17659476 -0.042785853 -0.030308772

encoder.mu.weight f4 [128, 128]
000000 d9 95 03 3d c8 db 87 bd 83 7e fb 3b b4 8d d6 39
       0.032125328 -0.06633717 0.0076749935 0.00040922838
000010 40 b5 f2 bc a3 5a 83 bc 29 e6 d6 3c 37 94 5e 3c
       -0.029627442 -0.01603443 0.026232796 0.013585142
000020 1d 5e ab bc de 75 bf 3d 53 04 df bd d1 7d e3 bc
       -0.0209189 0.09348653 -0.10889497 -0.027769955
000030 70 53 19 bc aa 29 20 bd ab bf 68 bd af c0 92 bd
       -0.009358272 -0.039102234 -0.056823414 -0.07165658
000040 7d ce ab 3b a8 bb 9c bd a9 aa fc 3a 4e 06 69 bc
       0.005243121 -0.0765298 0.0019276935 -0.014222695
000050 6e 5b 19 bb 80 99 93 3c 71 70 26 bd ed b4 c0 3c
       -0.0023400444 0.01801753 -0.040634576 0.023523772
000060 50 09 9d 3d da f4 a2 bc ce 59 8c bb cc 35 1a 3c
       0.07667792 -0.019892145 -0.0042831665 0.00941224
000070 08 af 48 bd cb 6f 34 3c 45 80 0e 3d c9 18 8f 3c
       -0.048995048 0.011012982 0.034790296 0.017467873
000080 aa 48 c9 3b 56 ee b9 3b 5d 24 2d 3d cf 24 47 bc
       0.0061426954 0.005674164 0.042271007 -0.012154772
000090 70 72 41 3d 0d 98 c2 bc f5 80 d7 bc e1 86 32 3d
       0.047228277 -0.023754144 -0.026306609 0.04358566
0000a0 42 09 92 bc e6 ea 60 bc 59 71 84 bd 1b 1a ca 3a
       -0.01782668 -0.013727879 -0.06466932 0.0015419157
0000b0 2d 59 90 bc 8f 12 3b bc e8 ea 0b bd 13 f2 8d 3d
       -0.017620647 -0.011417999 -0.03415957 0.069309376
0000c0 b0 9c 40 3d de 52 1f bd f6 b2 5f b9 30 e9 24 b9
       0.04702443 -0.038897388 -0.00021333605 -0.00015727128
0000d0 84 5e 53 ba c3 9d af 3c ae b8 a5 3d 83 93 11 bd
       -0.0008063095 0.021437531 0.080918655 -0.03554107
0000e0 15 53 15 bd aa 82 f8 3d f3 8a 48 3b 91 e1 51 3c
       -0.036456186 0.12134297 0.0030600398 0.012810127
0000f0 f7 69 83 bc 2c e4 b0 bc 82 cc ae bd a3 d1 5c bb
       -0.016041739 -0.021593176 -0.085351005 -0.003369429
000100 58 97 03 bc c0 8f ef bb 72 02 98 3c 14 f3 39 bd
       -0.008031689 -0.0073108375 0.018555854 -0.045397833
000110 8d 98 a1 3d ef 97 0d 3d 94 4f 04 3e bb 9c 96 3c
       0.07890425 0.034568723 0.12920982 0.018385282
000120 3d 2e 85 3c 13 5c b8 bc 3f 98 12 bd 29 42 0b 3e
       0.0162574 -0.022504842 -0.035789724 0.13599457
000130 af 2d 1a 3b ce 2b 37 3d 26 b4 89 bc 1a fc 0b 3e
       0.0023525765 0.04471951 -0.016809534 0.13670388
000140 1b 00 3a 3c 97 aa c0 3c 65 9d 0c 3c d4 88 c0 bc
       0.011352564 0.023518844 0.008582448 -0.023502745
000150 50 16 9a 3a 8e 57 ee ba 44 f6 17 3d 72 b6 82 3d
       0.0011755917 -0.0018184052 0.03710009 0.06382455
000160 73 e9 86 bd be f7 20 bd fd 91 93 3c 6a 6c 82 3d
       -0.06587496 -0.039298765 0.018013949 0.063683346
000170 d9 da be 3d f8 36 0d bd f4 90 b2 ba 3b a3 f1 bb
       0.09319086 -0.03447625 -0.0013623522 -0.007374195
000180 96 2a 43 3c 0f f5 22 3d 21 b5 9a 3d 96 01 5b 3d
       0.011912009 0.039784487 0.07554079 0.05346831
000190 77 0e 5c ba 41 15 69 bd 84 ea 0b bd ca 35 9c 3d
       -0.00083944894 -0.056905035 -0.0341592 0.07627447
0001a0 34 5a 56 bd 0d 49 a4 bc be 69 8c 3c c3 9e 2b 3d
       -0.05233212 -0.020054365 0.017140266 0.041899454
0001b0 37 a3 1f bb 38 8b 6a 3c 36 da d1 bd 60 4d 92 bc
       -0.0024358758 0.014315419 -0.102466986 -0.01785916
0001c0 c7 24 ed bc 26 e5 ab 3c 5d 20 6a 3d b1 69 71 bc
       -0.0289482 0.02098329 0.05715977 -0.014734671
0001d0 a6 de a2 3c 55 f8 6a 3e 13 4c 8d bc 9e a5 9a 3d
       0.019881558 0.22946294 -0.01724819 0.0755112
0001e0 6a 38 e4 3d b1 79 65 bc 40 05 79 bd 24 7c 95 bd
       0.11143573 -0.014006064 -0.060796022 -0.072990686
0001f0 7d 1e 3a bd 1e c3 32 bd 35 6a 58 3a 88 06 08 3c
       -0.045439232 -0.04364311 0.0008255572 0.008302338
000200 8c dd 5a bd 35 09 1a bd 6a 20 d4 3c 2e 78 c2 3d
       -0.05343394 -0.037606437 0.025894362 0.09495579
000210 c9 a4 a1 3c 1c 32 60 3d dd 5d 8c bc 72 55 aa 3d
       0.019731896 0.054735288 -0.017134601 0.08317079
000220 6b eb de bb f1 64 47 3d dc ff 6f bd 85 6a 07 3d
       -0.0068029664 0.04868025 -0.058593616 0.03306057
000230 4a 9d 34 3e 1b b7 0c 3d 04 b6 08 be f0 5a b6 bb
       0.17638126 0.03435431 -0.13350683 -0.00556504
000240 09 38 80 3d 2e 5a a6 3d 41 bf b0 bd 5b 6d f0 bc
       0.06260688 0.08122669 -0.08630229 -0.02934902
000250 e2 1b 49 bc 5e ab 29 3d 73 33 47 3c fa 70 89 3c
       -0.012274714 0.041423194 0.012158263 0.016777504
000260 0c 55 c0 3d eb 06 42 bd 83 49 22 bb 7c c0 86 3a
       0.093912214 -0.04736988 -0.0024763055 0.0010280753
000270 64 dc de 3c 01 cb b6 bd 76 03 6d 3d c5 4a 2d bb
       0.0272047 -0.08925439 0.05786463 -0.0026442271
000280 2c dd 78 3c 12 95 91 bc 6b 9c d2 3c e2 43 b8 3c
       0.01518945 -0.017771278 0.025709352 0.022493307
000290 b0 24 06 3e 00 aa 29 bd f2 1b 6f bd 47 97 d2 bc
       0.13099933 -0.04142189 -0.05837626 -0.0257069
0002a0 70 20 9f bd c0 ef cb bb 36 f1 87 3c da 9f b8 bc
       -0.07769859 -0.006223649 0.01659451 -0.02253716
0002b0 56 73 21 bd 57 7d f3 bd ec 0d 3a 3d f9 4b df 3b
       -0.039416634 -0.11889141 0.045423433 0.0068144766
0002c0 38 41 e5 3d 83 c0 92 bc 4d 39 d2 bc e3 98 d1 bc
       0.1119408 -0.017914062 -0.025662089 -0.025585597
0002d0 47 0e 94 bd 3c 22 0e bc 50 22 14 bd 68 50 6e 3c
       -0.07229286 -0.008675154 -0.036165535 0.0145455375
0002e0 32 05 a1 bd 15 65 e7 3d a0 05 b1 bc 5a f3 51 3c
       -0.07862319 0.11298577 -0.021609128 0.012814367
0002f0 b2 a9 f7 bc 4e 55 36 bd e6 d2 52 bc 50 b0 15 3b
       -0.030232284 -0.044514947 -0.012867665 0.0022840686
000300 9b 0c 62 3d dd dc 55 bc be f5 5f 3d 18 0c 26 bb
       0.055187803 -0.013053146 0.054677717 -0.0025336798
000310 74 8a c4 3d cb 5e 4b 3c c0 b4 87 bd cf 37 66 bc
       0.0959672 0.012412737 -0.06626272 -0.014051392
000320 13 10 b0 bb 09 ad f3 bd 68 42 98 3d 89 ce d2 37
       -0.00537301 -0.11898238 0.07434541 2.5130126e-05
000330 f2 d1 2d bd 7a 8a c0 bd ae 6f ec bc 0b dd 50 bd
       -0.042436548 -0.09401412 -0.028861847 -0.050992053
000340 d0 62 5b 3c 48 90 94 3c e9 af 76 bb 8c a1 47 3d
       0.013390258 0.018135205 -0.0037641472 0.048738047
000350 d2 af 35 bc d2 5d 5c 3c 00 2b c4 3d 8f 7a 3a bc
       -0.011089282 0.013450103 0.09578514 -0.011381759
000360 6b 46 02 3d 00 d1 b2 bb 7c cd 99 3c 49 27 44 bd
       0.031805437 -0.0054570436 0.01877474 -0.047889028
000370 83 b2 94 3b 66 a1 e3 3d cd 21 00 bd 3c b5 53 3d
       0.004537882 0.11114769 -0.031282235 0.05168651
000380 f8 a9 fd 3b bf 59 83 3c ec 73 9a 3d a1 bd 10 3e
       0.007741209 0.016034005 0.075416416 0.14134838
000390 eb 06 6c bc 7f d5 e8 bc 7f e6 9d 3c e3 cf c2 bd
       -0.014405946 -0.028422115 0.019274948 -0.095123075
0003a0 9b e7 cd 3c 99 29 6f 3c d4 50 cc 3c 35 10 8a bb
       0.025134852 0.01459732 0.024940886 -0.004213358
0003b0 0b 80 81 3c a6 9d f6 3c 5d 45 4b 3c a6 c3 82 3d
       0.015808126 0.03010447 0.012406674 0.06384973
0003c0 48 04 4c bc a3 26 8c 3b a3 70 aa bd f8 d0 0c 3d
       -0.012452193 0.004277067 -0.08322265 0.034378976
0003d0 c4 45 c5 bc 74 37 dc 3c 49 07 01 3d 1e 47 8d bd
       -0.024081118 0.02688191 0.03150109 -0.0689833
0003e0 c3 83 7b bd dc f8 f9 ba 11 e1 ac 3d d9 0c 9b 3d
       -0.061404955 -0.0019071358 0.084413655 0.0757081
0003f0 b8 35 41 3c 0f 24 a5 3d 5e 3b ed 3c 48 24 32 3d
       0.011792593 0.08063518 0.028958973 0.04349163

encoder.mu.bias f4 [128]
000000 ca ba 52 bb 87 a9 3c bb 98 a0 f4 39 99 0f 75 bb
       -0.0032154792 -0.002878757 0.00046658958 -0.003739333
000010 71 10 18 bd 8b 0d 63 bc 7f ad d9 3c 97 95 13 bc
       -0.037125055 -0.013858209 0.026571987 -0.009007833
000020 4a 14 4f 3b a3 2d 08 3b a9 aa 11 bc e4 f7 84 bb
       0.0031597787 0.0020779155 -0.008890786 -0.004057871
000030 d1 bc ef 3b ea 05 49 3c 70 42 dc ba 78 a8 cd ba
       0.00731621 0.012269476 -0.0016804468 -0.0015690466
000040 27 4a ec 3b 31 2c 3c 3a ca 9b b1 bc a0 d5 2f 3a
       0.007210988 0.0007178216 -0.021680731 0.0006707553
000050 d1 75 22 bb b1 7b e6 ba e2 d3 39 3a 9f 51 b2 3b
       -0.0024789462 -0.001758447 0.0007088763 0.005441859
000060 02 93 13 3c 68 94 cd 3b 5a 1d a6 bb d7 5a 0c 3b
       0.009007217 0.006273795 -0.005069417 0.002141645
000070 98 34 e2 ba b2 d0 da 3b d2 c0 c3 39 af c9 b5 3b
       -0.0017258106 0.0066777105 0.0003733696 0.005547724
000080 29 20 b7 3a be 54 6d 3b 08 97 2e bb 28 17 ae bb
       0.0013971376 0.003621384 -0.0026640315 -0.005312819
000090 92 86 ed 3b 0c b5 09 3a 22 68 ce bb e3 f1 51 bc
       0.007248708 0.00052531133 -0.0062990347 -0.012814018
0000a0 45 ad 7f bb b8 0a 56 ba fb df 5c 3c 8f f7 1d bc
       -0.0039013189 -0.00081650494 0.0134811355 -0.009641542
0000b0 cd c8 28 bd c2 98 bd 3c e6 d2 d4 3b ee c8 4b 3a
       -0.041207124 0.02314413 0.0064948676 0.00077737763
0000c0 b1 12 55 3b f7 e0 03 3b 44 fb fa ba a4 3b 1b b9
       0.0032512362 0.0020123103 -0.0019148369 -0.0001480417
0000d0 7f a3 29 bc 80 9c 75 3b 1b a7 b3 bb ac f6 4e bc
       -0.010353922 0.0037477314 -0.005482567 -0.012632053
0000e0 af 12 d0 bb a2 66 6d ba c6 58 b1 ba cf 48 7a 3c
       -0.0063498835 -0.0009056126 -0.0013530485 0.015276148
0000f0 ca e3 23 bb d2 8e 57 3b d2 8c cc b9 78 fd bd ba
       -0.00250076 0.0032891524 -0.0003901483 -0.0014495095
000100 4d 5a 32 3d bc b6 6f bb d6 ae 0f 3a e2 03 83 3b
       0.04354315 -0.0036577424 0.00054810697 0.0039982656
000110 13 34 d6 3c 55 d1 82 3b f5 08 f6 3b 9e 45 15 bb
       0.026147878 0.0039922395 0.007508392 -0.002277709
000120 84 01 6c 3b 6d 1f 27 3a 61 f4 96 bb 9e 09 2f bc
       0.0036011646 0.0006375227 -0.004606769 -0.010683445
000130 66 5e 1a bb e3 c3 89 bb 6d 14 89 3b a8 e8 70 3c
       -0.00235548 -0.0042042597 0.004183343 0.014703907
000140 0a 22 64 3b 16 1f b8 bc 38 54 28 bc f6 33 a0 3b
       0.0034810328 -0.02247576 -0.010273986 0.0048890067
000150 c4 8b 58 3a 26 10 50 bb 46 bf 5b bc 25 d1 03 3c
       0.0008260573 -0.0031747906 -0.013412302 0.008045469
000160 46 22 ad bc 83 86 0b 3c 95 49 02 3c ed 5f 11 bb
       -0.021134507 0.008515957 0.007952114 -0.002218242
000170 02 39 77 bb 70 e0 10 bb a2 fe 80 bb bc e1 b7 39
       -0.0037723188 -0.0022106431 -0.0039366046 0.00035072665
000180 42 da 48 3b eb e8 62 ba 6b 74 8f bc 9a 10 ed 3a
       0.003064767 -0.00086559233 -0.017511567 0.0018086613
000190 6c 05 f2 3c cf b0 95 3a e1 5f 2f 3c da 7b 43 3b
       0.029543601 0.0011420491 0.010704012 0.002982846
0001a0 cd cc 7c bb 20 ef fb bc 66 7a 4e 3a 7a df 24 3c
       -0.003857422 -0.030753672 0.0007876515 0.010063047
0001b0 41 b0 18 bb 72 22 74 bb 2c 0c 50 3a 70 76 4a 3a
       -0.0023298415 -0.0037251976 0.0007936384 0.0007723337
0001c0 b2 0d 01 3c 7c 9e 9a 3b fc 02 05 ba 3d d9 3f bc
       0.0078768 0.0047186 -0.0005073992 -0.0117095085
0001d0 3d d8 ba 3a 9c 93 9a b9 84 5e b4 ba 9c 16 84 3c
       0.0014255118 -0.00029483146 -0.0013761078 0.016124062
0001e0 23 3f 1d bd 5d 18 0c bb 27 1e db 3b 70 4a be ba
       -0.03839029 -0.0021376826 0.006686944 -0.0014518034
0001f0 9e 72 ea 3a 09 00 b1 bc ce 42 3a bb aa c2 5c 3b
       0.0017886942 -0.021606462 -0.0028421166 0.0033685365
