wandb_tmp/model.pth (torch, 129868 bytes, 26 tensors)

encoder.conv1.weight f4 [20, 10, 2]
000000 ed 65 c5 be 0d 37 8c be 31 a2 9f bd 67 dd 51 3d
       -0.38554326 -0.2738575 -0.077946074 0.051236536
000010 3b 83 0c bf 47 a9 9a 3e 54 cc 81 be 4d b4 74 bc
       -0.5488774 0.30207273 -0.25351202 -0.014935565
000020 3b 17 c4 bd d7 2a 25 bf 39 f7 eb 3d a8 55 41 3e
       -0.09574743 -0.64518493 0.11521763 0.18880332
000030 68 ef 84 3e f8 45 2e 3e 04 24 a0 be b6 d5 60 3d
       0.25963902 0.17018878 -0.31277478 0.05489131
000040 b1 eb 6e 3e bb 97 97 3b 2d f0 c8 be 1f 1f a2 be
       0.23332097 0.004626242 -0.3924574 -0.3166437
000050 6d 3d e6 3d d8 b4 a2 bd a2 a6 37 bd ef 6e 4d 3e
       0.11242185 -0.079446495 -0.044836648 0.20061849
000060 35 6d 91 be b9 35 e5 be c2 b2 8f 3c 6d 6c cf be
       -0.2840363 -0.4476755 0.017541293 -0.4051241
000070 1b 8f ef be e1 0e 25 bf aa 8b a8 3e 41 3a 77 3e
       -0.46788868 -0.6447583 0.32919055 0.24143316
000080 d8 b4 5e be 91 ba dd bd 00 e8 da be 50 3b 7b 3e
       -0.21748674 -0.108266 -0.42755127 0.24534345
000090 ad 94 4a 3e 70 9b 02 be f4 b1 aa 3d bf 92 47 bd
       0.19783278 -0.12754607 0.08334723 -0.048723932
0000a0 3b 94 8c bd 7d 7b 3c 3e 30 1b c3 be fc d7 12 bf
       -0.0686421 0.18406482 -0.3810668 -0.57360816
0000b0 25 75 1b 3f 06 aa 88 be 18 d8 43 be 6e 8f e6 be
       0.60725623 -0.26692218 -0.19125402 -0.45031303
0000c0 51 f2 7a be 57 bc 9d 3e 1c 83 a4 be a6 b5 b7 3d
       -0.24506499 0.30807754 -0.3213128 0.089701936
0000d0 cd 69 df be ee b3 39 be 2c c5 e0 bc 61 65 fd be
       -0.43635407 -0.18135044 -0.027437769 -0.49491408
0000e0 a8 e3 45 3d 34 b1 a6 bd 29 f6 8c 3c 90 de 02 3e
       0.048312813 -0.081392676 0.017207222 0.12780213
0000f0 d8 4e c4 be bc 0c 50 be 54 65 4a 3e 6d b8 d4 bd
       -0.38341403 -0.20317358 0.19765216 -0.10386739
000100 0b ee 8b be a4 22 ae be 03 49 32 3e 04 78 f9 be
       -0.2733005 -0.34010804 0.17410664 -0.48724377
000110 5a 39 3d 3d 33 b3 e5 be e2 ca 16 3e ed 63 95 3e
       0.046197273 -0.4486328 0.14725831 0.291778
000120 85 e6 2a be e3 f6 26 3e 96 c5 78 3d e6 83 f0 3d
       -0.16689499 0.16305117 0.060735308 0.11743908
000130 6b 88 44 be b3 c1 e4 bc fe f6 e1 3e 52 a8 15 3e
       -0.19192664 -0.027924394 0.44133753 0.1461499
000140 f9 a6 60 3e 10 68 22 3e 13 40 78 3e 8c 59 6e bd
       0.21938695 0.15860009 0.24243192 -0.058190867
000150 8d 24 08 be 44 ce 86 be 4f 50 1b bd 44 22 4f 3e
       -0.13295193 -0.26329243 -0.037918385 0.20227915
000160 cd 50 7b 3e e3 a2 32 be 02 47 72 bd 44 43 a3 3e
       0.24542542 -0.17444949 -0.05914975 0.31887257
000170 dd 31 bb 3d 44 79 0a be 39 53 a7 3e 1a 63 3c bd
       0.0914037 -0.13522822 0.3268068 -0.045992948
000180 48 06 b3 3c 71 4d 41 be 1e ce 7a 3e 58 00 44 be
       0.021853581 -0.18877198 0.2449269 -0.19140756
000190 9d 24 df bd ee d7 f2 be a3 19 99 3d 47 45 43 3e
       -0.10895655 -0.47430366 0.07475593 0.19069396
0001a0 9d 51 0f bf bf 4a 1b bf 6e 3b 1b 3e 47 02 4f be
       -0.55983907 -0.6066093 0.1515939 -0.20215712
0001b0 15 02 d8 be c6 73 38 bd 20 77 07 3e d8 a1 32 3d
       -0.42189088 -0.045032285 0.13229036 0.043611377
0001c0 8c d9 b6 bd ac d0 3b bd f9 db a6 3e aa 57 26 3e
       -0.089282125 -0.045853302 0.325897 0.16244379
0001d0 64 2b 81 bd 91 ff 99 be d8 b4 ad 3d 1d 1b 9d be
       -0.06307104 -0.30077794 0.08481759 -0.30684748
0001e0 5e 6f 93 be 67 c1 2b be 12 89 92 3e 67 a5 08 bf
       -0.28795904 -0.16772996 0.286202 -0.53377384
0001f0 90 8a 3a bf 3c 8b b0 be 19 1e 16 3e af 78 26 bf
       -0.7286768 -0.34481227 0.14659919 -0.650279
000200 52 58 d5 3e 6c 91 3f 3e d2 94 1d be ba ce 35 3f
       0.41668946 0.18707818 -0.15388802 0.71018565
000210 2b cc 5d bf 00 2d 80 bd fe 40 f0 3d 11 03 84 3e
       -0.8663966 -0.06258583 0.11731146 0.2578359
000220 9c 8f d3 3d 4c 31 aa bc 21 b9 85 be de 47 04 bf
       0.10330126 -0.02077546 -0.26117805 -0.5167216
000230 e2 56 2d 3e 19 35 8a 3e 00 95 37 3d d6 96 b4 be
       0.16927674 0.26993635 0.04481983 -0.3527133
000240 b7 19 94 bd 02 0e 2e bd 81 4f bb be 06 d8 29 be
       -0.07231467 -0.042493828 -0.36584094 -0.16586313
000250 b3 50 9d 3e 70 50 ac 3d c5 ec 47 3d 0f eb d4 3e
       0.3072563 0.0841378 0.048809785 0.41585585
000260 59 af bd be 7c e8 b6 bd 7b 09 92 3e f8 1d 9e be
       -0.37047842 -0.089310616 0.28522858 -0.3088224
000270 97 84 9a bc 17 f9 39 3c bf 58 44 bd 97 e8 87 be
       -0.018862052 0.011350892 -0.047936197 -0.2654464
000280 6c 67 9f 3d b0 5b a7 be ca 45 85 bd 8f 2b 5b be
       0.07783398 -0.3268714 -0.06507452 -0.21403335
000290 b8 12 b0 be a4 b2 b4 be 8f 4b 99 bd f7 ed a4 be
       -0.3438928 -0.35292542 -0.07485115 -0.32212803
0002a0 c6 e6 b3 3e bf 0b 8b be fb f7 61 be 98 f2 d7 be
       0.35137004 -0.271574 -0.22067253 -0.42177272
0002b0 fd 4b a4 be 73 04 ce bc 80 9d bd be c8 f9 30 3e
       -0.32089224 -0.025148606 -0.37034225 0.17282784
0002c0 47 77 f6 3d 86 bc 04 3e de 5b 9a bd 4a 9a 9b 3b
       0.12034469 0.12962541 -0.075370535 0.0047486173
0002d0 85 70 3e 3d 17 97 a4 be 3d 3d 16 bf ac 49 fb bd
       0.046494026 -0.32146522 -0.5868719 -0.12269911
0002e0 b1 4e 91 3e 2a 25 bb 3a 90 2c 8a 3d ed 9b 4c bf
       0.2838035 0.0014278044 0.06746781 -0.79925424
0002f0 5c 63 d4 be 98 cc 9d 3d eb 1f 24 3e cc db 17 bd
       -0.41482055 0.07705039 0.160278 -0.03707485
000300 29 4c eb 3d 40 7a 2c 3e 92 f4 8e 3e ea 10 e9 3d
       0.11489136 0.1684351 0.27920967 0.11380179
000310 9e 02 69 be 54 fd 3a 3d ad 65 bb 3e a4 d4 7d 3e
       -0.22754905 0.04565175 0.3660101 0.24788147
000320 da 0b fd 3d 57 b2 f3 be b0 82 f0 be fa db 81 be
       0.12355776 -0.47597 -0.46974707 -0.2536314
000330 a4 d2 02 3f ad 51 3d 3e 0e 4d 75 3e 92 f6 1d be
       0.5110266 0.18488188 0.23955175 -0.1542609
000340 98 15 1a be a6 8c 4f be fa f9 f9 3d bb 84 2f be
       -0.150473 -0.20268497 0.12205882 -0.17140476
000350 be bb 0c be dd 2b 20 bd 38 10 f1 bd a7 ab 34 be
       -0.13743493 -0.03910433 -0.117706716 -0.17643605
000360 76 b2 44 be be 7a 3e 3e c9 72 fd 3e 3e 9d dd be
       -0.19208702 0.1860151 0.49501637 -0.4328403
000370 d1 d4 84 3e 4b 93 8b be fc 09 91 be 53 e7 40 3e
       0.25943616 -0.27260813 -0.2832793 0.18838243
000380 fa a5 8f 3e 10 5c 6e be 70 27 1e 3e b0 d0 98 be
       0.28056318 -0.23277307 0.15444732 -0.29846716
000390 b4 c2 dd bd 29 41 01 bf 8e 2b eb bc 56 df 3a bf
       -0.10828152 -0.5049005 -0.028707292 -0.72997034
0003a0 8a 77 cd 3a 02 02 84 3e 50 61 1c be 64 15 fd be
       0.0015675884 0.25782782 -0.15271497 -0.49430382
0003b0 5f 71 41 be e7 30 98 3e 22 b7 d7 3e 68 a6 99 3e
       -0.18890904 0.2972481 0.42131907 0.3000977
0003c0 90 23 75 3e 9a ab c6 be 32 8f f5 be 9a 6d 12 be
       0.23939347 -0.38802797 -0.47960812 -0.14299622
0003d0 37 db 88 3e 15 d4 76 be d9 f7 9f be 3e fd 27 bf
       0.26729748 -0.2410434 -0.3124378 -0.6562079
0003e0 4a 9c b8 be d3 e6 39 3e 78 e1 86 3c bf 3f b5 bc
       -0.3605674 0.18154459 0.016464934 -0.022125123
0003f0 d8 a1 50 3d 09 a7 92 3d 3f d9 6f be 55 c7 1f 3e
       0.050935596 0.07160766 -0.23422717 0.15603383

encoder.conv1.bias f4 [20]
000000 d6 68 ec bd cb bb 62 3d 37 48 0a be 26 dd d3 bd
       -0.11543433 0.055354875 -0.1350411 -0.10344915
000010 a4 8f 8c 3d 97 d0 c1 3c c8 80 8e 3c 0f ab fd bc
       0.06863335 0.023659034 0.017395392 -0.030965356
000020 d9 1b 22 be 7f 1b 09 3e d9 7e 17 be a0 17 2f be
       -0.15830936 0.13389395 -0.14794482 -0.17098856
000030 db 8c a9 bc bc ab 8d 3c a8 4f 21 3e c6 20 07 bd
       -0.020697048 0.017293803 0.15753043 -0.03299024
000040 3a aa 72 bd 1e 09 97 bd 4a 38 a6 be 9b e1 5f be
       -0.059244372 -0.07374786 -0.3246482 -0.21863405

encoder.conv2.weight f4 [10, 20, 3]
000000 e5 48 b9 3d e0 70 1f be b5 d2 e8 bd 00 80 08 be
       0.09047107 -0.15570402 -0.11368314 -0.13330078
000010 6f e1 d0 bd 74 a7 e3 bc 95 bb 54 3d 13 70 e7 bd
       -0.10199248 -0.027789809 0.051936705 -0.11300673
000020 73 f2 8b 3d d7 c6 de 3b 62 0d e4 bd b6 47 8d 3c
       0.06833353 0.006798606 -0.11135365 0.017246109
000030 34 4a d8 bd 6c 90 e9 bd c2 70 6c bd 99 a1 21 bc
       -0.10561028 -0.114044994 -0.05772472 -0.009865188
000040 6f 58 22 3d 9f 8f 29 bb 2d d7 7e bd 03 24 8e bb
       0.039635118 -0.0025872958 -0.062216926 -0.004337789
000050 45 dc a5 3d 93 62 31 be fc 3c 02 be db c8 ae bd
       0.08098654 -0.1732276 -0.12718576 -0.08534404
000060 bf de ca bd 19 ab 6b bd f8 8b 07 be d9 09 21 3c
       -0.09905767 -0.05753622 -0.13236988 0.009829008
000070 3e 5e 2d be 06 30 b0 3c 31 bb 3c bd f2 e2 d5 3c
       -0.16930482 0.021507274 -0.046076957 0.026109193
000080 9e f4 14 3b d4 58 ba ba 1f 51 f0 bd 78 9e ee bc
       0.002272881 -0.0014217147 -0.117342226 -0.029128298
000090 96 a7 da bd 65 e6 9e 3d b7 4b 50 bd d0 59 e6 bd
       -0.10676496 0.07758788 -0.050853457 -0.11247599
0000a0 03 ff fb bd 83 3d 00 3c 45 c4 be 3c c1 02 6b 3b
       -0.12304499 0.007827166 0.023286948 0.0035859796
0000b0 51 62 ce bd d7 6f 15 3c 5d c8 15 3d b6 9b 98 bd
       -0.10077346 0.009120903 0.036568034 -0.074515745
0000c0 8d b4 90 3d a6 ad 0b 3d 9d 29 2c bd e7 ba 90 3d
       0.07065687 0.03410115 -0.042031873 0.07066899
0000d0 de 47 18 3d f0 8d 0f ba e5 46 64 bd 16 12 56 3d
       0.037177913 -0.00054761674 -0.055731673 0.05226334
0000e0 70 d2 21 be 40 a4 82 3d ea 6c c8 bb 40 49 6f 3d
       -0.15802932 0.063789845 -0.006116499 0.058419466
0000f0 ee c3 c7 3d 54 a3 13 be 82 c4 f9 3d b0 22 a8 3d
       0.097541675 -0.14417773 0.12195684 0.08209741
000100 ce be 9d 3d 56 96 03 3e 85 70 db 3d 1e 9f 32 be
       0.07702409 0.12850317 0.10714821 -0.17443511
000110 01 e8 8c be 5a ac 5c bd fa 81 9c bd 2a 5a bb bd
       -0.27520755 -0.053875305 -0.076419786 -0.09148057
000120 aa 17 6e bc a0 d7 8c 3c 4a 20 28 3d a3 75 3d be
       -0.014532009 0.017192662 0.04104642 -0.18501906
000130 f6 24 f5 3d a9 74 63 be ff b9 50 bf 49 b8 5b 3e
       0.1196994 -0.22212471 -0.8153381 0.21457018
000140 ea 73 9d be 98 28 0a be 9b 50 aa 3d 4a 63 de 3d
       -0.30752498 -0.13492048 0.083161555 0.10858782
000150 92 7e 10 bd e2 21 6b 3e 33 39 05 be 03 11 32 3e
       -0.035276957 0.22962144 -0.13010101 0.17389302
000160 38 65 01 3c 73 52 d0 bd 73 00 37 3e aa c2 35 bc
       0.007897668 -0.10171976 0.17871265 -0.011093775
000170 e2 eb 81 be 9b 58 aa be 80 9a 5d 3d 2f 53 2c be
       -0.25375277 -0.33270726 0.05410242 -0.16828607
000180 be e1 58 3e d7 f0 26 be 7d 0e e1 3d 53 38 36 3e
       0.21179864 -0.1630281 0.109890915 0.17794923
000190 03 5c 1e bd c3 f8 60 3e 2c 64 85 3d 6a 35 92 3d
       -0.038661968 0.21969895 0.06513247 0.07139094
0001a0 2a c3 16 3e 8e 04 9d bd ee 55 b8 3b 2c cc 45 3e
       0.14722887 -0.07666884 0.005625478 0.19316167
0001b0 9c 89 c9 be 39 ab 25 be 2e 05 53 3d 53 f5 ba 3d
       -0.393628 -0.16178598 0.05151861 0.09128823
0001c0 19 51 e3 3d 22 a6 20 3d 99 17 85 3d 6c 1f 83 be
       0.110994525 0.039220937 0.064986415 -0.2560991
0001d0 56 66 80 3e 86 38 74 3e 6b 9a 98 3d 9e 33 c7 bc
       0.25078076 0.23849687 0.07451328 -0.024316605
0001e0 1a 2e bd be ca 78 79 be 3c e8 f0 bd eb cd 9b be
       -0.36949235 -0.24362484 -0.11763045 -0.3043054
0001f0 3a 9c 85 3c 33 7b ad bd 67 c5 40 3e 24 05 06 bf
       0.016309846 -0.08470764 0.18825303 -0.52351594
000200 e3 43 6c be 43 db 48 3e 73 93 9f 3e ed ad 39 3c
       -0.23072772 0.19614892 0.31167182 0.011332971
000210 5a ee 48 3e 56 c0 cd 3d e1 c5 9c bd 66 05 59 3c
       0.19622174 0.10046451 -0.0765493 0.013245916
000220 ca 15 49 bd 21 bf 77 3e 2d f4 bb 3d a4 77 14 be
       -0.049093045 0.24194004 0.09177432 -0.14498764
000230 85 6e 09 be 51 57 c5 3d a2 05 3d be 0f af d6 3d
       -0.13421066 0.09635795 -0.1845918 0.104826085
000240 18 70 de bd 5b e4 d0 3e 8a 3b 26 be 78 8a 5b 3d
       -0.10861224 0.4079922 -0.1623365 0.05359885
000250 09 24 25 3e a8 45 e4 3d 56 63 e3 bd 20 12 db 3d
       0.16127028 0.111460984 -0.11102931 0.106968164
000260 a3 00 80 3e 51 64 88 3e e4 7e ad 3e 2c 44 24 3f
       0.25000486 0.26639035 0.33885872 0.6416652
000270 82 89 16 be 5a c2 0e 3e a0 6c 08 3e fb 32 0e bf
       -0.14700893 0.13941327 0.13322687 -0.5554654
000280 d7 eb 1d 3d 29 60 1b 3d f3 cc 70 be 6c 8a 4d bd
       0.038554993 0.037933502 -0.23515682 -0.050180838
000290 b0 f6 de bd 06 9a 33 3e 29 48 88 3d e9 a0 46 3e
       -0.10886896 0.17539224 0.066543885 0.1939732
0002a0 14 0a 14 be a1 1c 24 be cc 24 b5 3c df d8 cd bd
       -0.1445697 -0.16026546 0.022112273 -0.100511305
0002b0 aa 21 38 3e 25 f6 18 3e cd d6 2a 3e 4c 62 5e 3d
       0.17981592 0.14937647 0.16683502 0.054292962
0002c0 43 48 96 3e ff f8 c5 be cc 66 e3 3d ab cf 17 be
       0.29352006 -0.3866653 0.11103591 -0.14825313
0002d0 94 d8 5e be ad f5 c2 be a9 93 a4 be e2 b0 aa be
       -0.21762305 -0.3807806 -0.32143906 -0.33338076
0002e0 ca f8 c3 bd 52 78 aa 3d 4d 7a 2c 3d d7 ac 67 bd
       -0.09568937 0.083237305 0.042108823 -0.056561317
0002f0 f3 75 24 be 4c e2 a3 be 42 f1 2f be 0f 6f 05 be
       -0.16060619 -0.32008588 -0.17181876 -0.13030647
000300 98 e4 b2 bd 15 c5 75 be 4b 88 50 be ad 03 b7 be
       -0.08735007 -0.24000962 -0.20364492 -0.35744992
000310 17 36 35 be 4f d2 29 be 9f ca 80 be 0a 8b c2 be
       -0.17696415 -0.16584133 -0.25154588 -0.37996703
000320 d6 ad 87 3b ce 44 f6 bd 81 2f c1 be c3 9a 1c 3c
       0.004140596 -0.12024842 -0.37731555 0.009558382
000330 c6 2e dc bd e7 21 ec bd 42 d6 8c 3d a3 b4 d1 be
       -0.10751109 -0.11529904 0.06876804 -0.40958127
000340 42 77 2f be d1 14 7b be ae bc 83 be a4 21 51 bd
       -0.17135337 -0.2451966 -0.2572989 -0.051057473
000350 31 db 0a bd 12 84 f0 bc 57 d0 e4 bd 72 23 c1 bd
       -0.033900443 -0.029359851 -0.1117255 -0.09430589
000360 f9 53 9e be 49 20 a0 3d f8 38 bd bd 95 ce 93 be
       -0.3092344 0.07818658 -0.092393816 -0.28868547
000370 5b 3c 45 be 2e aa da bd 6e 42 2b be 2a 7a 2c be
       -0.19261305 -0.106769904 -0.1672456 -0.16843477
000380 fa 5f ef be a7 c5 65 be 6d 34 42 be 12 3f 22 3e
       -0.46752912 -0.2243868 -0.18965311 0.15844372
000390 3a 1f 35 be ba 38 b4 be de 55 ca be 8c c2 39 be
       -0.17687693 -0.3519953 -0.39518636 -0.1814062
0003a0 28 23 6a be 68 d3 f6 3c d1 5f b3 bd 96 9c ea 3d
       -0.22864974 0.030130103 -0.0875851 0.11455648
0003b0 1e 79 35 3d 0c 04 7b be 84 07 0b be 57 77 a3 bd
       0.04430496 -0.24513263 -0.13577086 -0.07981747
0003c0 65 0c 9c bd 64 72 bc 3b 72 b5 17 3e 51 4a df 3d
       -0.076195516 0.005750941 0.1481531 0.109028466
0003d0 4d b3 02 be 0f 0f a7 3d 0d 20 05 3f be b7 30 be
       -0.1276371 0.08157169 0.5200203 -0.17257592
0003e0 18 cd d0 be 53 a2 ab be b3 f5 ed bc 09 38 e4 3d
       -0.40781474 -0.3352228 -0.029047823 0.111435
0003f0 20 e5 fd bd d4 3a f8 3d 6b dd 9a bd 5f 66 25 bd
       -0.12397218 0.121205956 -0.075617634 -0.04038083

encoder.conv2.bias f4 [10]
000000 45 dd 12 be 4e 3d e6 3d d3 8a 95 bd 44 71 b8 be
       -0.1434222 0.11242162 -0.07301869 -0.36023915
000010 3c 2d 84 3d 0a 40 be bc b7 9c e4 bd 76 be 97 be
       0.0645394 -0.023223896 -0.111627035 -0.29637498
000020 11 2a 37 3b 13 21 f7 3c
       0.0027948658 0.030167138

encoder.conv3.weight f4 [10, 10, 4]
000000 48 68 6c bd 09 63 c4 3d 77 f0 a5 3d d2 da e0 3d
       -0.057716638 0.09589202 0.08102506 0.10979237
000010 21 de db bd 78 f9 a0 bd c4 5b 45 be 68 e9 90 be
       -0.10735727 -0.078600824 -0.19273287 -0.28303075
000020 e7 ae 96 bd b2 a5 d7 bd 44 75 4f 3d c4 59 8a bd
       -0.07357579 -0.10529651 0.050648943 -0.06755403
000030 e7 bb f3 3c 23 46 9b 3d 1f 74 b2 bc 68 d5 b8 3d
       0.029752685 0.07581737 -0.021783886 0.09025079
000040 0f 6e cd bc a3 f9 9e be b1 a2 2d be d5 eb 05 be
       -0.025076894 -0.31049833 -0.16956593 -0.13078244
000050 ad c6 12 be 7a 69 b4 be 44 8b 0c be 7e e0 f2 3c
       -0.14333601 -0.35236722 -0.13725 0.029648062
000060 c9 49 8c bd f8 e9 95 be 51 29 dd 3d b1 54 b0 be
       -0.06850011 -0.29280066 0.10798896 -0.34439614
000070 c8 dd b0 3d 82 84 ae ba 57 c7 91 3c c2 31 89 3d
       0.086360514 -0.0013314637 0.017795248 0.06698944
000080 e7 c0 8e 3d 57 d9 5a 3d ae 43 d5 3c b1 d5 c5 bd
       0.06970387 0.053429928 0.026033249 -0.09659899
000090 7d a6 6a bd 5d 87 6c 3d 6b 8b 00 be 62 5c 69 be
       -0.05728768 0.05774628 -0.12553184 -0.22789147
0000a0 7a d1 14 be 94 54 a9 bc d7 6e be bc cc a0 ba bc
       -0.14533034 -0.020670213 -0.023246212 -0.022781752
0000b0 69 ac 2b be e6 5e d4 3c 46 86 0d 3e 15 c7 3c be
       -0.16764988 0.025924157 0.13820753 -0.18435319
0000c0 c4 73 cb bd 03 5b ba 3c 8c 35 4f be e4 b6 54 3e
       -0.0993419 0.022748476 -0.2023527 0.20772892
0000d0 a4 fa ad bd 3c bd 42 be df 3d 31 be 18 c3 fd 3d
       -0.084950715 -0.190175 -0.17308758 0.12390727
0000e0 82 d9 da 3d a6 c5 81 3e e2 76 33 be 78 32 28 be
       0.106860176 0.25346106 -0.17525819 -0.16425502
0000f0 8e 18 e4 3d 78 4c 36 3d 6d 5e 09 bd c8 12 99 be
       0.11137496 0.04450652 -0.033537317 -0.2989714
000100 76 af 2e 3e 33 8c 95 bb 09 97 3d bd ab c6 d2 bd
       0.1705912 -0.004563832 -0.046286616 -0.10291799
000110 67 17 0d 3e 42 78 f1 bd 54 d1 a9 3c 57 a6 97 3d
       0.13778459 -0.117905155 0.020729698 0.07404774
000120 53 d9 2a bd 45 a8 c6 3d 0d ab a2 bc f2 5a a3 3d
       -0.041711163 0.097000636 -0.019856954 0.07976331
000130 09 17 ad 3d 4a 8f 6b bd e2 37 be bd 33 6c cd bd
       0.08451659 -0.057509698 -0.092880026 -0.10030403
000140 8b 65 d7 bc e1 f9 d6 bd 08 ad a0 3d d5 b6 1c 3e
       -0.026293537 -0.10496879 0.07845503 0.1530412
000150 2c 62 07 bd 41 bf 49 be f7 20 7d 3c 1b 53 8e bd
       -0.03305261 -0.19701864 0.015449754 -0.06949445
000160 96 4a 5b 3d bb 2a 67 bc 14 ff 1e be 1c ac 8d bd
       0.053537928 -0.014109309 -0.15526992 -0.06917593
000170 ba 97 0b 3e 49 b1 19 3e e7 0c 43 3e e5 97 96 bd
       0.13632098 0.15009035 0.1904789 -0.0735319
000180 5c 21 3f bd 37 a5 90 3a 36 fa 1a 3e 54 d9 4c bd
       -0.046662673 0.0011035566 0.1513451 -0.050011948
000190 7e 0c c0 bd e0 b5 1e be da 1f e7 bd 07 40 cc bd
       -0.09377383 -0.15499067 -0.11285372 -0.0997315
0001a0 ed ca d6 bd 05 68 4b be 1d e8 fa bd 0f 7c de 3d
       -0.10487924 -0.19863899 -0.12251303 0.10863506
0001b0 57 bf b0 bd df 6e 40 be 5a 53 68 ba 6d 0b 6f 3b
       -0.08630245 -0.18792294 -0.0008862518 0.0036475316
0001c0 1d 17 11 3d 3e 3c 58 3c b5 19 c6 bc 98 dc 20 bd
       0.035422433 0.013197957 -0.02418218 -0.039272875
0001d0 2a 7b 30 be ad a8 02 3e 6c 5f 0d be cc d0 1d be
       -0.17234483 0.12759657 -0.13805932 -0.15411681
0001e0 5e fd b0 bd a6 31 9f 3d 18 fc 47 bd 77 74 19 3d
       -0.08642076 0.077731416 -0.0488244 0.037464585
0001f0 a1 3c b6 bd 87 7c 7c 3e 06 8f 03 3e fe d4 3d be
       -0.08898283 0.24656878 0.12847528 -0.18538281
000200 51 ce 1a bc 1f 48 4a be 4c c0 ea 3d b0 54 76 be
       -0.009448604 -0.19754075 0.11462459 -0.24055743
000210 0b 07 59 bd 68 b3 b5 3a e8 66 1c 3e 85 30 92 3d
       -0.052985232 0.0013862671 0.1527363 0.071381606
000220 73 01 71 3c ae 78 ce bd a9 c6 17 be 62 fe c3 b9
       0.014709818 -0.100816116 -0.14821877 -0.00037382828
000230 22 cd df 3d 88 b4 0e bd 23 c6 50 3c 76 b5 cd 3d
       0.10927798 -0.034840137 0.012742552 0.100443766
000240 cf b9 5d 3d fd 20 81 3c ef e8 1d be 47 af 24 be
       0.05413228 0.0157628 -0.15420888 -0.16082488
000250 8f d3 3d be 3f 12 3d be 90 72 e1 b9 37 65 d4 bd
       -0.18537734 -0.18463992 -0.000430007 -0.10370868
000260 f7 29 fb 3d 01 4b d1 bd d3 26 17 be 41 7a fd bd
       0.122638635 -0.10219384 -0.14760904 -0.12376834
000270 99 56 cb 3e 5d 46 03 bd 99 44 d1 bd 2a eb 6b bd
       0.39714506 -0.032049526 -0.10218162 -0.057597317
000280 fc 31 f6 bc 1e c9 86 bc a3 b9 0e 3e 30 00 a1 3d
       -0.030053131 -0.016453322 0.13938002 0.07861364
000290 76 df ab 3e f8 e6 40 be 28 6e d1 3c f1 e0 3f be
       0.33568925 -0.18838108 0.025565222 -0.18738152
0002a0 46 e4 99 be ec 28 47 bd 6b b1 65 be 8f b4 76 3e
       -0.3005697 -0.04862301 -0.22430961 0.24092315
0002b0 b2 d9 0d 3d 26 16 9b bc 50 d3 48 3e c7 a0 44 3e
       0.03463144 -0.01893146 0.1961186 0.19201957
0002c0 1f e3 5c 3e f4 2e 3a 3e 31 fc 8f be 6c d4 77 ba
       0.21571015 0.18181974 -0.28122094 -0.00094539556
0002d0 1c f7 08 bc 48 c9 af bb 47 d0 63 be bb 84 99 bd
       -0.008359697 -0.0053645708 -0.2224742 -0.074960195
0002e0 44 9c a4 be ce 95 b5 bd 35 38 e8 3b ab 76 d6 3d
       -0.3215047 -0.088664636 0.0070867785 0.10471853
0002f0 0f ae 96 3d f3 e4 69 3d 92 82 56 3c 27 03 5b 3d
       0.07357418 0.05710311 0.013092654 0.053469803
000300 a3 eb d1 3d f8 ff ea bc a6 3d 60 3c 69 4a 1a 3c
       0.10250022 -0.028686509 0.013686573 0.009417155
000310 4f 57 a6 3e ec 65 1e 3d eb 16 96 3d eb 08 98 3d
       0.32488486 0.03867142 0.0732859 0.07423576
000320 31 5f e9 bd ee ae 0f be b4 c6 80 bc 9e cc 1a be
       -0.113951094 -0.14031574 -0.015719749 -0.15117118
000330 1d 28 22 3d 51 87 65 be 17 e9 27 be 38 2a 25 be
       0.039589036 -0.224149 -0.1639751 -0.16129386
000340 ec a3 2a bd 3f 8f 53 be e8 c5 c0 bd 7f 25 04 3d
       -0.041660234 -0.20660113 -0.094127476 0.03226232
000350 38 b5 06 3e 8e 11 1b 3e b3 94 89 bc cd be 21 be
       0.13155067 0.15143415 -0.016794538 -0.15795441
000360 4c 8b 32 3b 86 50 4b be 05 74 ee bd 46 77 2d be
       0.0027243672 -0.19854936 -0.11643223 -0.1694003
000370 c9 72 36 bc 06 97 8e bd 96 82 37 be 28 33 26 be
       -0.011135765 -0.06962399 -0.17920908 -0.16230452
000380 9e 62 29 be 1a fe 93 3c 02 2e eb 3c 4b 93 77 bd
       -0.16541526 0.018065501 0.028708462 -0.060443204
000390 e6 9c 1a 3e f9 80 94 bd 13 f2 a8 bc b7 89 85 bd
       0.15098915 -0.07251162 -0.020623242 -0.06520408
0003a0 81 6d a6 bd f5 cb 19 3e a6 ab f1 3d d7 f2 a5 3d
       -0.08126355 0.1501921 0.118003175 0.08102959
0003b0 dc c1 24 bd 65 22 14 bd dd 74 06 be 25 d7 32 be
       -0.04022394 -0.036165614 -0.13130517 -0.17464884
0003c0 c2 e2 10 be aa 10 c7 bc e8 d2 3a 3d 69 28 11 be
       -0.14149001 -0.024299938 0.045611292 -0.14175572
0003d0 a8 f3 45 bf 11 3a ab 3d 50 c4 86 bc fc 21 31 bd
       -0.77324915 0.08360685 -0.016451031 -0.0432453
0003e0 1e be 97 bd 4f 58 ad 3d 48 c9 79 bc 35 ae a9 bd
       -0.07409309 0.08464109 -0.015245743 -0.082851805
0003f0 90 16 88 3d 3d 33 39 be a5 71 9f be c4 e1 dc bd
       0.066449285 -0.18085952 -0.3114139 -0.10785249

encoder.conv3.bias f4 [10]
000000 16 6c a2 be b2 22 2f 3e b3 15 73 bd 7e ce fb 3d
       -0.31723088 0.17103079 -0.059346866 0.12295245
000010 09 30 cd 3d 6d b1 24 be ed b7 80 3e bb 84 3f be
       0.100189276 -0.16083308 0.25140324 -0.18702976
000020 a2 4d 20 3e 34 77 23 3d
       0.15654615 0.039908603

encoder.linear.weight f4 [20, 90]
000000 ca e9 48 3d c0 10 2f bc 09 ca 25 bc ab 7d 78 3d
       0.049051084 -0.010685146 -0.01011897 0.06066672
000010 26 20 15 bd 18 13 a0 bd 27 30 79 3d f4 6b 0f be
       -0.036407612 -0.07816142 0.060836937 -0.14006025
000020 00 3e 5d 3d 4a 84 0d 3e e8 11 07 3e 4c 1d ef 3d
       0.054014206 0.13819996 0.13190424 0.1167551
000030 17 f0 22 3d 92 58 08 bd 92 86 ad 3c da bf f2 3d
       0.03977975 -0.033287592 0.021182332 0.11852999
000040 18 b9 91 3d af 4f 43 3c 91 14 16 bd e3 9b 74 bc
       0.07115382 0.0119208535 -0.036640707 -0.014929744
000050 2e af ae 3d 7d a0 4b bd 24 73 cd 3d 44 73 11 3d
       0.085295066 -0.0497136 0.10031727 0.035510316
000060 ba 61 73 bb 8a 68 85 bd ab 50 ba 3d 15 d0 87 bc
       -0.0037137107 -0.0651408 0.090974174 -0.016578713
000070 94 96 44 3e 58 7e 61 3d 1e 7e fd 3c 68 21 6e 3d
       0.19198066 0.05505213 0.030943926 0.058137327
000080 1e 18 a9 bd 01 71 a0 3d f1 94 88 3d d4 46 cf 3d
       -0.08256553 0.07834054 0.06669033 0.10120931
000090 37 e4 d6 3e f7 eb a0 be 91 de 31 be 05 3d 5c bd
       0.4197099 -0.31430027 -0.17370059 -0.05376913
0000a0 54 d9 06 be 6c 6a 8f 3d f4 38 f8 3d 4a c4 2e 3e
       -0.13168842 0.0700272 0.12120238 0.17067066
0000b0 7d 65 4f 3e 7d ac 52 bc 99 93 37 be f7 f0 8a bd
       0.20253558 -0.012858507 -0.17927398 -0.06784242
0000c0 87 b6 4a be 25 a2 c1 3c 0f d0 c1 3d b5 db c0 3d
       -0.19796191 0.023636887 0.09463512 0.09416906
0000d0 ef 23 e9 3c 6c af a3 3d 7f fd 81 bd 83 00 f1 bd
       0.028459517 0.079924434 -0.06347179 -0.11767676
0000e0 7f a1 00 3e 78 7f 67 3d b9 30 75 3e 51 bc 8a 3d
       0.12561606 0.056518048 0.23944367 0.067742
0000f0 db a6 cf 3d dd 91 41 bd 01 d3 a7 bd 2f f3 70 3e
       0.10139247 -0.047258247 -0.08194543 0.23530267
000100 a7 d7 cd bd 8a b7 24 3e 2f e6 3c 3d 42 40 9d 3d
       -0.10050898 0.1608564 0.046117958 0.07678272
000110 7b bb 11 bd 60 08 5b bd b8 67 7b be df 7b d9 3e
       -0.035579186 -0.053474784 -0.24551284 0.4247732
000120 5f f0 02 3e 8a da ee 3d 11 5d 8d 3d 15 60 10 3e
       0.12787007 0.11662777 0.06902517 0.14099152
000130 b9 6c 8e 3e 24 3d 1c 3e f9 bd 2e 3e cf 97 31 3e
       0.27817324 0.15257698 0.17064656 0.17343067
000140 7c e2 1b bd 35 f0 f3 3d fd 47 5d 3e 4b 65 87 3d
       -0.03805779 0.1191105 0.21609493 0.06611117
000150 f1 19 2f 3d 0f ed dd bc 79 44 14 3d 99 17 93 3d
       0.04274935 -0.027090577 0.036198113 0.07182235
000160 94 9f 8a ba b7 fc 0b 3e 26 f3 7c 3d c2 c1 92 3b
       -0.0010576122 0.13670622 0.061755322 0.004478664
000170 33 7a 28 3d 23 63 8a 3d c8 5b 77 3d b6 7f 7a bd
       0.041132163 0.0675719 0.060390264 -0.06115695
000180 0b df 98 3d e7 78 6f bd 97 62 89 3c 42 c3 01 be
       0.07464417 -0.05846491 0.016770644 -0.12672141
000190 f6 c3 a8 bb 79 67 85 bd e1 18 00 be 76 96 8b bd
       -0.0051503135 -0.065138765 -0.1250949 -0.068158075
0001a0 4f d2 42 3c 11 2f 79 bc e6 a4 00 be 79 6d c5 bd
       0.011890962 -0.015208975 -0.12562904 -0.09640021
0001b0 4e 5a 9d bd 2b 08 8c 3d dd 2f 22 3c e1 b8 2b 3c
       -0.0768324 0.068374954 0.009899107 0.01048109
0001c0 b0 ea 5e 3d 84 d6 f9 bc 32 67 c0 bd 4f 3d 12 3d
       0.054423034 -0.030497797 -0.09394683 0.035703
0001d0 64 de 28 bc e2 b0 ee bd ef f0 6b bd cf 96 56 3c
       -0.010306928 -0.116548315 -0.05760282 0.013097479
0001e0 be 45 d0 bd 6c 4d d0 bc e0 9b 25 3c 6d 3e a3 bd
       -0.10169552 -0.025427543 0.010107964 -0.07970891
0001f0 c6 b6 7e 3d 8f 53 e9 3c 66 90 52 3c 77 f0 18 3d
       0.062186025 0.028482227 0.01285181 0.0373387
000200 0f d8 d6 bd e9 fc 20 3b 8d cf ec bc ef fc 2a bc
       -0.10490429 0.0024564809 -0.028907562 -0.010436281
000210 4d 3e 84 bd d5 d5 69 bd e3 23 30 bd 7a 6c 89 3d
       -0.064571954 -0.05708869 -0.043002974 0.067101434
000220 7c 31 5e bd b6 7e be 3d 81 d1 8c 3d 55 0d 8a 3d
       -0.05424641 0.09301512 0.06875897 0.06740824
000230 41 82 b3 bd 14 8c 4a 3b 6a 19 c9 bd d5 db 90 bd
       -0.08765078 0.0030906247 -0.098193005 -0.0707318
000240 c0 65 8e bd be bf 81 3b 47 65 ee bd 89 fa 99 3c
       -0.06953001 0.003959625 -0.11640411 0.018796222
000250 1c d1 bb 3c 26 75 37 3d 14 8f 1a 3c b6 7a 17 bd
       0.02292686 0.044789456 0.009433527 -0.03698226
000260 d8 69 42 bd 18 73 b1 bc 25 82 9b bd 90 8b 31 bd
       -0.04746422 -0.021661326 -0.075931825 -0.043345988
000270 24 21 a1 3d d6 24 22 3d 33 a7 d0 bd eb c3 50 bc
       0.07867649 0.03958591 -0.10188141 -0.012742023
000280 41 f7 a8 3d 9a 3b 7d bd 06 a7 d7 3c df 58 05 be
       0.08250285 -0.06182442 0.02632476 -0.13022183
000290 5c 25 8d 3c d8 b2 78 3c e5 4c df 3c c6 55 da bc
       0.017229728 0.015179358 0.027258346 -0.026652228
0002a0 87 6c 20 3d d1 87 fe bb ef ed e9 3c 66 3f 1e 3c
       0.039166 -0.0077676554 0.028555838 0.00965867
0002b0 fc 44 45 3d f5 f4 ca 3b 23 90 cd bd 86 04 d9 bd
       0.04816149 0.006193752 -0.100372575 -0.10596566
0002c0 1d 55 37 bd 2c 9b fb bd 13 e1 b7 bd f1 ed 01 be
       -0.044758905 -0.12285456 -0.089784764 -0.12688424
0002d0 76 cd c8 bb 45 d5 94 3d 3c 09 6f 3b e0 f4 82 bd
       -0.0061280085 0.072672404 0.003647401 -0.063943624
0002e0 f2 ec 52 3d cc 70 9f bd 75 9b 95 bd 05 1a 18 bc
       0.0514955 -0.07785186 -0.07305042 -0.009283547
0002f0 5d 5a b4 3d 90 51 2a be a5 d6 a8 bd b6 a6 02 be
       0.08806298 -0.16632676 -0.08244065 -0.12758908
000300 bb 5a d5 bd 33 01 51 be fe 50 09 be e9 72 88 bd
       -0.10417696 -0.20410614 -0.13409802 -0.066625424
000310 56 97 ee bd 9c 78 42 be 64 28 c5 bd b9 9d 8b 3c
       -0.11649959 -0.18991321 -0.096268445 0.017042981
000320 e3 7e 69 3d 4f 24 b0 3d 15 fb d7 3c ed 98 a9 3d
       0.057005774 0.08600675 0.026364842 0.082811214
000330 81 65 86 3c bd a3 c2 bd 50 2a 69 3a b0 c8 66 bd
       0.016405823 -0.09503887 0.00088945497 -0.056343734
000340 71 16 68 be 8f 70 30 be 4f 58 38 be 14 21 e9 bd
       -0.2266481 -0.17230438 -0.18002437 -0.11383262
000350 14 3c 09 be eb bd 4f be ba 71 f2 bc 64 49 0b bd
       -0.13401824 -0.20287292 -0.029595245 -0.034005538
000360 d4 d0 84 3d ca 84 a3 bd 3f 45 b8 bd df 49 f1 bc
       0.06485143 -0.07984312 -0.08997583 -0.02945417
000370 c7 de 9a bd bf 8b a5 bd c3 d2 a5 bd f4 10 70 bd
       -0.07562023 -0.08083295 -0.0809684 -0.058609918
000380 c0 1e 92 bd e1 a2 be bc c7 d2 1c bd 54 4d b9 bb
       -0.07134771 -0.023271026 -0.03828695 -0.00565497
000390 5c 48 a2 3d bc f2 be 3d 81 de 37 bd 68 75 c0 3d
       0.07923958 0.09323642 -0.04488993 0.093973935
0003a0 7a 40 97 bd 61 03 a9 bd a5 79 0b be 71 c5 9f bd
       -0.07385345 -0.082525976 -0.13620622 -0.07801331
0003b0 b5 66 1c be 11 31 12 be dd c0 68 bd ec af a1 bd
       -0.15273555 -0.1427653 -0.056824554 -0.078948826
0003c0 fa 0f 22 bc ac c3 45 3d 7e 29 d0 bd f9 b5 01 bd
       -0.009891504 0.04828231 -0.10164164 -0.031667683
0003d0 76 21 61 3d f2 62 c2 bd 8b 13 b9 bd 95 04 0f be
       0.05496355 -0.094915286 -0.09036931 -0.13966592
0003e0 e9 d5 22 bd 93 4d f5 bd c4 2f 13 3d 99 bb 7c 3d
       -0.039754782 -0.11977687 0.035934225 0.061702345
0003f0 3a 9b 19 be ec 21 ab bd c3 69 60 be df 82 35 bd
       -0.1500062 -0.083560795 -0.21915345 -0.04431426

encoder.linear.bias f4 [20]
000000 bb 7a 26 3c e9 4d f6 bd e2 9c 08 be 96 c6 a4 bd
       0.010161097 -0.12026579 -0.13341096 -0.0804569
000010 91 c6 1d bd 5c 5d 7f 3e b4 fa 22 3e 16 24 1a be
       -0.038519446 0.24937958 0.15915948 -0.15052828
000020 68 94 01 be af 13 9a 3e 26 21 63 bd fd 58 b2 bd
       -0.12654269 0.30093142 -0.055451535 -0.087083794
000030 57 bb fd bd 93 42 57 3c f6 78 b3 3c d9 cf 03 be
       -0.12389248 0.013138431 0.021908265 -0.12872256
000040 9b c7 30 bd fe 89 16 be 21 01 f0 3b 2b 24 8e 3c
       -0.04315911 -0.14701077 0.0073243533 0.01735123

encoder.mu.weight f4 [20, 20]
000000 da 8a 10 be 4c 90 0a 3d 36 de 19 be 29 39 05 be
       -0.14115468 0.03382902 -0.15026173 -0.13010086
000010 aa 80 32 3e cc 80 11 3e af 71 b9 bd 60 61 7e 3e
       0.17431894 0.14209288 -0.090548865 0.24841833
000020 4d 30 a5 3d 5f 37 8b 3d 84 04 25 3d dc 97 69 be
       0.08065853 0.067976706 0.04028751 -0.22811836
000030 93 6d 98 bd 42 cd 4b bd 35 d3 28 be 15 3d 93 3d
       -0.074427746 -0.049756296 -0.16486819 0.07189385
000040 e4 06 47 3e 60 4a 6f 3d 6d 51 81 bd 41 d9 9c 3d
       0.19436222 0.05842054 -0.06314359 0.076586254
000050 60 5b 50 3b b2 58 1e be 3f 4e 12 3e c5 a2 cc 3d
       0.0031792745 -0.15463522 0.14287661 0.09991983
000060 af ba 35 3e f2 24 6b bd 4c 72 fe 3a 7b c4 f9 bd
       0.17746995 -0.05740828 0.0019412725 -0.12195679
000070 fc 2e 84 bc 8b 3c 12 3c 7b f2 8b 3e 3b 1b 67 bd
       -0.016135685 0.008925567 0.27333435 -0.056422453
000080 ff 8f 02 be 61 08 2c be 2a 23 1a be 5d 9f f2 3d
       -0.12750243 -0.16800071 -0.15052477 0.118468024
000090 92 28 18 3e 44 2b df bd a9 78 07 3e 5b 63 c0 3c
       0.14859226 -0.10896924 0.13229622 0.023484876
0000a0 db 76 48 3e 77 2d bd bd 15 11 24 be 72 63 08 3e
       0.1957659 -0.09237187 -0.16022141 0.13319185
0000b0 84 3c d0 ba 14 93 1f be 57 cc 06 3d 18 8b 3f be
       -0.0015887176 -0.1558345 0.032909717 -0.18705404
0000c0 14 9d 35 3d 9a a0 cd bd 56 b4 5d 3e 99 2e 84 be
       0.044339254 -0.10040398 0.21650824 -0.258168
0000d0 ea e2 c0 3d 1f 40 62 be 27 a8 04 3e 17 07 77 3e
       0.094182804 -0.22094773 0.1295477 0.24123798
0000e0 e3 b1 4b bc d7 26 ec bd e8 d6 3e bd 60 06 82 3d
       -0.012432548 -0.115308456 -0.04659167 0.06348872
0000f0 39 fa a3 3d 47 c2 fa bc 8b 92 50 3e 6a 03 d9 3d
       0.080067106 -0.030610217 0.20368402 0.10596354
000100 6c cc 69 bd aa d7 3b be c8 e9 90 bd c8 72 f9 bd
       -0.057079718 -0.18343988 -0.0707584 -0.12180096
000110 fa 58 74 3e fb 2f 5b 3d 94 9b ca 3d c0 3f c3 3d
       0.23862067 0.053512555 0.098929554 0.09533644
000120 7d 7c 1d 3e 70 30 39 bb c8 01 a1 3d ec a0 05 be
       0.1537952 -0.002825763 0.07861668 -0.13049668
000130 36 04 6f 3d fe b9 99 3d fd 0f a7 3d a6 f2 3a 3e
       0.058353625 0.07506178 0.081573464 0.18256626
000140 61 af ef bb 8b 6a 1e be 1b 0d 1a bd 85 07 f5 bb
       -0.007314608 -0.1547033 -0.037610155 -0.007477703
000150 3d 34 fd bc c9 41 92 3d 31 09 17 3e b0 90 3a be
       -0.030908698 0.07141454 0.147496 -0.18219256
000160 11 c3 b9 3d 4c 99 25 3d 44 fa 00 be 2a d2 e4 bd
       0.09070409 0.0404294 -0.12595469 -0.11172898
000170 cd 9b a2 3d 65 62 b6 bc 8c bf 7e 3e 00 db 8f 3b
       0.07939873 -0.022263715 0.24877757 0.0043901205
000180 c8 c9 39 3d 4d e5 7f 3e 5e 94 05 3e b8 f1 d6 3d
       0.04535845 0.24989815 0.13044879 0.10495323
000190 e1 73 ae 3b 9f b0 11 be b2 83 55 3d 7a 24 75 3c
       0.0053238724 -0.14227532 0.052127548 0.01496231
0001a0 6b 3b c7 bd c3 7f 44 3e b4 9e d3 bd df 35 bc bd
       -0.0972813 0.19189362 -0.103330046 -0.091899626
0001b0 f7 24 f8 bd 5b 7e 29 bc 12 cc 24 3d 91 54 bf bd
       -0.121164255 -0.010345067 0.04023368 -0.09342302
0001c0 fc c6 4c 3d 93 5c d5 bd c6 d1 d2 bd 64 ca 4b bd
       0.049994454 -0.10418048 -0.10293917 -0.04975356
0001d0 2c b7 90 3d 0e e7 1c be 57 f0 b7 bd e6 86 2d be
       0.07066187 -0.15322515 -0.08981388 -0.16945991
0001e0 5d 6d 2a be a6 ea 1b be e6 ae e4 bc 3f d4 6d 3d
       -0.16643281 -0.1522623 -0.02791543 0.05806374
0001f0 8b e0 a3 bd 96 02 96 bd 5d e8 f7 3c dd b9 d5 3d
       -0.080018125 -0.07324712 0.030262167 0.10435841
000200 53 b2 2f be a4 69 6c 3d ab 0f a5 bd dc bb 3b be
       -0.17157869 0.057717934 -0.08059629 -0.18333381
000210 f0 ab 55 be 75 b1 2c 3e e3 00 82 3c 95 7d 00 bc
       -0.2086637 0.1686457 0.015869563 -0.007842441
000220 bd 61 44 3e 8e a6 4e be cc 50 03 be fd 73 24 3e
       0.19177909 -0.20180723 -0.1282379 0.16059871
000230 21 5b 33 3c f0 8a 59 be 43 08 00 3e e8 74 df bd
       0.01094702 -0.21244407 0.12503152 -0.1091097
000240 cc a0 9a bc 4d ca 70 3d 93 21 cc 3c 40 5f de bd
       -0.018875502 0.05878668 0.024918353 -0.10858011
000250 a7 e1 5a be 98 2a bf 3b 93 bb 6f bd 73 b5 04 3d
       -0.21375142 0.005833935 -0.058528494 0.032399606
000260 76 b4 c0 bd 42 31 1a 3d 31 3a ae bd 34 b4 be bd
       -0.0940942 0.037644632 -0.08507193 -0.09311715
000270 1a 0a 49 be 8a 51 b4 bd 5a a2 76 bd ff 0e a7 bb
       -0.1963276 -0.08804615 -0.060213424 -0.005098223
000280 2c 22 bf bd d3 be 41 bd 9f 89 e0 bd 9f fc 16 be
       -0.0933269 -0.047301125 -0.10963749 -0.14744805
000290 cf 31 9a bd 8b 32 71 3d 60 07 22 3b aa d0 a7 ba
       -0.075290315 0.058886092 0.0024723634 -0.0012803276
0002a0 c8 24 14 bd 7b ba db 3c da c2 5a bd 4d 38 2b 3e
       -0.03616789 0.02682232 -0.05340848 0.16720696
0002b0 0b 48 7f 3c 02 86 b1 3d 7c 82 5e be a7 ff 21 3e
       0.015581141 0.08668138 -0.21729463 0.1582018
0002c0 ad dc 35 3e fa 9a 35 3d 86 17 4e 3e 46 af 23 3d
       0.17759962 0.04433725 0.20126161 0.039962076
0002d0 64 e9 e5 bc 47 33 f7 bb b1 13 35 3e 44 1a f7 bd
       -0.02806539 -0.0075439545 0.17683293 -0.12065557
0002e0 1f 21 0f be 45 a6 b9 bb 0e a6 0b bd ee 28 30 3e
       -0.13977478 -0.005665573 -0.03409391 0.17203113
0002f0 69 d3 fa 3d 49 35 07 bc 81 b0 61 be 98 65 21 3e
       0.122473545 -0.00825245 -0.22039987 0.15761411
000300 ad 8d 14 be 57 b5 cf bd e1 10 f5 bd 54 da 7b 3e
       -0.1450717 -0.1014201 -0.1196611 0.24595004
000310 ec 22 32 be 35 44 c3 bd 64 41 ed bd cc 47 f3 bb
       -0.17396134 -0.09534494 -0.11584738 -0.0074243303
000320 83 26 18 3e ac 4c 56 bc 4d 7a 1c bd 89 1d 54 be
       0.14858441 -0.013079803 -0.038202573 -0.20714392
000330 db 59 29 be 0f 11 91 bd ff e0 24 3e ba fe 38 3d
       -0.16538183 -0.07083332 0.16101454 0.0451648
000340 73 ec 16 be 80 50 0e 3c 3c 4d 05 3e 48 05 28 bd
       -0.14738636 0.008686185 0.13017744 -0.04102066
000350 59 83 29 3e f1 67 f9 3d 0d 04 a4 3d d0 67 07 be
       0.16554011 0.121780284 0.08008585 -0.13223195
000360 ac 6d 15 be 29 04 02 3e a3 43 d9 3d 53 12 87 3d
       -0.14592618 0.126969 0.10608604 0.06595292
000370 9b 0b 12 3c 13 28 21 3c ae 04 9b 3d da 07 4a 3e
       0.0089139 0.009836215 0.07569252 0.19729558
000380 8c 0b 64 bc 36 36 ce 3d 14 e6 f8 3a 11 04 fe 3d
       -0.013918769 0.10068934 0.0018989467 0.12403119
000390 a0 b5 00 3e 9e 1b 9c bd 89 c1 85 bd 3e ba 00 3e
       0.12569284 -0.07622455 -0.065310545 0.12571046
0003a0 f2 a7 00 3e fa 50 27 3d 78 a6 c4 bd 7b 03 9d bd
       0.12564066 0.04084871 -0.09602064 -0.076666795
0003b0 8a 5a 2b be 2e 73 90 bd a1 a7 2e 3e 17 31 81 ba
       -0.16733757 -0.07053219 0.17056133 -0.0009856549
0003c0 18 5c 85 bd d3 91 41 3e 5a 55 6b be ee 26 e2 bb
       -0.06511706 0.18903284 -0.22981778 -0.0069016134
0003d0 91 53 17 ba 7f 36 0a be ca 23 ae 3d 2f f6 48 3c
       -0.0005772645 -0.13497351 0.0850292 0.012265726
0003e0 03 5a f6 3b bf 85 9f bd 3a 53 06 be 1d ec d7 3d
       0.0075180545 -0.07789182 -0.13117686 0.10543082
0003f0 4e fd 4e be 3a 7f 68 be b1 99 75 3e 17 55 7b 39
       -0.20213816 -0.22704783 0.2398441 0.00023968924

encoder.mu.bias f4 [20]
000000 cf 7d dd bd 3d d6 1c 3d ef ef 0b 3e d7 6c 9e 3d
       -0.10815012 0.03829025 0.13665746 0.07735603
000010 98 0d 93 be 64 90 27 bd 39 16 2f 3c 22 5b c4 bd
       -0.2872131 -0.040909186 0.010686451 -0.09587695
000020 04 ff 7d bd 6a 1f 81 3d 75 eb 38 be 54 72 56 bc
       -0.06201078 0.0630482 -0.1805857 -0.013088781
000030 02 4c 53 3e 54 d5 be bb 29 08 a0 3c 90 1d 45 3d
       0.20634463 -0.0058237705 0.019535141 0.048123896
000040 24 19 1e bd b4 1e 2a 3e f5 1c b0 3c 62 a9 ba bc
       -0.038598195 0.16613275 0.021498183 -0.022785846

encoder.sigma.weight f4 [20, 20]
000000 93 79 24 c0 4b 6d 35 bd d1 6b 09 3e e1 bb 42 be
       -2.5699203 -0.044293683 0.13420035 -0.19016983
000010 54 b5 98 3d 04 bb 37 c0 a0 33 39 c0 04 fe b6 bd
       0.074564606 -2.8707895 -2.893776 -0.089351684
000020 47 f3 5e be 36 31 38 c0 b9 29 03 be 02 7a 40 bd
       -0.2177249 -2.8780036 -0.12808885 -0.046991356
000030 1c a3 82 3c 3b e5 84 bd 76 79 31 bd af 65 30 be
       0.015946917 -0.06489035 -0.043328725 -0.17226289
000040 c2 e9 59 3d 0c d4 00 3e 69 2d 15 3e 77 58 16 c0
       0.053201444 0.1258089 0.14568104 -2.3491495
000050 8d 66 10 c0 55 09 e9 3d 70 29 b0 3d 98 a2 0f be
       -2.2562592 0.11378733 0.086016536 -0.14026868
000060 fa 19 57 be ef fc 02 c0 c7 14 11 c0 f2 29 80 be
       -0.21006003 -2.0466878 -2.2668931 -0.25032002
000070 74 82 9f be cb 33 1d c0 eb ec 7f 3d 8f d5 ee 3c
       -0.31154215 -2.4562862 0.062481802 0.029154567
000080 1f 63 84 bc 36 8d d0 bd 1f 2b 1a 3e de 39 ed 3d
       -0.016160546 -0.10183184 0.15055512 0.11583303
000090 45 e1 af 3d f1 12 56 3e d5 94 99 bd 97 12 fe bf
       0.08587889 0.20905663 -0.074990906 -1.9849423
0000a0 3b 83 5a c0 b9 90 85 be f4 7d b8 3d 24 e5 74 bd
       -3.4142597 -0.26086977 0.09008399 -0.059788838
0000b0 bb 78 6f bd 02 6c 3d c0 4c 0e 6c c0 ef 5c 14 be
       -0.058464747 -2.9597173 -3.6883726 -0.14488576
0000c0 45 26 84 be af 4a 4a c0 08 07 1e be ab 66 3b 3e
       -0.25810447 -3.1608083 -0.1543237 0.18300883
0000d0 d2 3e 1a 3e 0c 2b ec 3b 73 9b 4d be 1f 04 ca 3d
       0.15063027 0.00720728 -0.2007883 0.09864067
0000e0 da 6e a7 bd 1b 3f f7 3c a0 51 3b bd 7c 9e 4e c0
       -0.0817544 0.030181458 -0.04573214 -3.228423
0000f0 b7 72 4c c0 22 bc 0c bc 95 34 1d 3e d6 e6 00 be
       -3.1945016 -0.008589776 0.1535209 -0.12588057
000100 a4 76 ad bd 5b 34 33 c0 16 f1 68 c0 46 99 d7 bd
       -0.084698945 -2.8000705 -3.6397147 -0.105272815
000110 8c 61 9e be 60 e8 56 c0 67 2e b1 3c 71 70 97 bd
       -0.30933797 -3.357933 0.021628572 -0.07394493
000120 59 e0 9f 3d 99 87 ef bd b7 aa 2b bd fb 19 9d bd
       0.07806463 -0.11695785 -0.041910853 -0.07670971
000130 51 97 8c 3d 57 72 57 be d7 3e 37 3e 78 18 2b c0
       0.06864799 -0.21039711 0.17895065 -2.6733685
000140 5e 9d 26 c0 46 fc 08 be c4 c0 58 3e fe 2f e6 bb
       -2.603355 -0.13377485 0.21167284 -0.007024764
000150 b3 e0 19 3d 70 eb 1d c0 8f f9 48 c0 5f 1a 17 3e
       0.037567805 -2.467495 -3.1402318 0.14756154
000160 71 bb 8d be 91 86 34 c0 91 3c 86 3e 81 88 f9 3d
       -0.2768207 -2.8207133 0.26218084 0.12184239
000170 75 0c ab 3d ab b9 b4 bd 5a 66 a3 bd 6d 05 5f 3d
       0.08351985 -0.08824476 -0.079785064 0.054448534
000180 f1 64 10 3d 83 e5 24 3e f3 f7 03 3e c1 ae 3d c0
       0.035252515 0.16103177 0.12887554 -2.9637911
000190 3d fc 24 c0 b7 d3 1e bd c2 f5 3f 3d 7d 16 bf bd
       -2.5778954 -0.038776126 0.046865232 -0.09330461
0001a0 c9 96 21 3e 05 54 44 c0 92 80 42 c0 15 72 42 3e
       0.15780176 -3.0676281 -3.0390973 0.18988831
0001b0 08 f9 dd bd 79 5c 24 c0 0c eb b2 b9 13 70 50 be
       -0.108385146 -2.568144 -0.0003412593 -0.20355253
0001c0 a7 28 dd 3c c4 89 4e 3d 68 5c 37 3e 34 18 4c be
       0.026996924 0.050424352 0.17906344 -0.19931108
0001d0 a3 8f 73 bc 5b ee 81 3d 67 64 d6 bd 0c 89 30 c0
       -0.014865789 0.06344291 -0.10468369 -2.7583647
0001e0 41 72 55 c0 e1 8d 82 be 09 51 bd 3d 71 69 0f 3c
       -3.3350985 -0.2549887 0.09243972 0.0087531665
0001f0 8b d6 04 be 92 7c 48 c0 35 1f 4c c0 9f af 1f 3d
       -0.12972467 -3.1326032 -3.1894047 0.038985845
000200 f3 c4 72 be c0 51 4c c0 39 30 8b 3d da 38 a4 bd
       -0.23707943 -3.1924896 0.06796307 -0.08018656
000210 f6 de a0 bb da 36 ec bd 38 ce 2a 3e 89 93 69 bd
       -0.0049093915 -0.115338996 0.16680229 -0.057025466
000220 3b 49 37 bd 59 04 2a be 3e 2d f4 bd 01 99 35 c0
       -0.044747572 -0.16603221 -0.11922692 -2.8374636
000230 f7 7c db bf 01 06 cc 3d 91 7b 7d 3d 4f 6d 33 3e
       -1.7147511 0.09962083 0.06188542 0.17522167
000240 06 46 37 3e 43 35 10 c0 41 20 0a c0 c6 98 cf 3d
       0.17897806 -2.2532508 -2.1582186 0.10136561
000250 24 ce f5 bc 72 c8 00 c0 c2 24 f8 bc 2a de 95 bd
       -0.030005522 -2.0122342 -0.030290965 -0.07317765
000260 ca d6 89 bd 55 23 d5 3d 57 07 36 be c5 6e f2 bd
       -0.06730421 0.1040713 -0.17776237 -0.11837534
000270 66 a0 58 3e b8 ef 09 be 2e 97 00 be 6e a1 05 c0
       0.21154937 -0.13470352 -0.1255767 -2.087978
000280 c2 c2 1d c0 d7 13 07 bd 1a 8e 1a 3e 7d c4 ea bd
       -2.465012 -0.032977905 0.1509327 -0.114632584
000290 42 24 66 be f4 3f 18 c0 23 04 30 c0 6c 18 36 be
       -0.22474769 -2.3789034 -2.7502525 -0.17782754
0002a0 86 47 86 be 6f 4d 20 c0 e8 b2 ad 3d 96 23 68 be
       -0.26226443 -2.5047262 0.08481389 -0.22669825
0002b0 c2 ab 1b bc dc ff c7 3c 42 93 eb bd d9 3e 38 3e
       -0.0095013995 0.024413995 -0.115026966 0.17992724
0002c0 27 28 a8 3d 67 54 2c 3d e8 0b 2c 3e 36 1e 02 c0
       0.082107835 0.04207268 0.16801417 -2.033094
0002d0 14 37 0e c0 5a b3 a3 3d 1e 81 bf 3d 4a 71 84 3d
       -2.2221117 0.07993193 0.09350799 0.06466921
0002e0 f1 41 d7 3b cc 00 1a c0 24 ac 19 c0 21 e1 00 3e
       0.00656914 -2.4062986 -2.4011316 0.1258588
0002f0 38 54 ce bd 3a 14 fc bf 36 90 14 be b8 fd e5 3c
       -0.10074657 -1.9693673 -0.14508137 0.028075084
000300 3c c6 24 3d e6 f4 7f be 35 66 9d bd d5 5d 24 3e
       0.040228114 -0.24995765 -0.0768551 0.16051419
000310 88 a8 22 3d 8a 9b 09 3e af 90 b2 3d 5c b9 11 c0
       0.039711505 0.1343824 0.087190025 -2.2769384
000320 4b d1 4f c0 75 7e 8a 3d 1a ac 3e 3e 87 9b 5a 3e
       -3.2471492 0.06762401 0.18620339 0.21348391
000330 6e c8 d7 3d cb 85 39 c0 38 46 58 c0 74 28 44 3e
       0.10536276 -2.898791 -3.3792858 0.19156057
000340 8f ed 5f bd 2b 0a 3b c0 58 30 43 be a5 a7 3d 3e
       -0.054669913 -2.9224956 -0.1906141 0.18520983
000350 6f cb 1f 3c 88 2d e9 3d 15 c7 de 3d 93 91 10 bd
       0.009753092 0.113856375 0.10877816 -0.03529508
000360 62 d3 0c be 9d 15 ab 3d cc da 7d be 62 75 66 c0
       -0.13752511 0.08353732 -0.24790496 -3.6009145
000370 fc 03 35 c0 a6 b5 2b 3c 9f d0 41 be 47 02 02 bd
       -2.8283682 0.01048032 -0.18927239 -0.031740453
000380 32 0d 0e 3e 61 be 35 c0 82 dc 3c c0 7b 08 38 be
       0.13872221 -2.8397448 -2.9509587 -0.17971985
000390 f5 69 b2 be cf 2f 30 c0 ec 69 20 3e 72 bb 07 3d
       -0.34846464 -2.752918 0.15665406 0.033137746
0003a0 e3 77 39 bd 74 9f 0a bd 44 ae 85 be 6f 5e 16 3d
       -0.04528035 -0.033843473 -0.26109517 0.036711153
0003b0 a4 f4 1a 3e d2 b8 43 be 1f 97 d0 bc ec ef 41 c0
       0.15132385 -0.19113472 -0.025462685 -3.0302687
0003c0 01 ad 23 c0 a2 bb ae bc 94 52 61 3e 9f 35 9e bc
       -2.5574343 -0.021329705 0.22004157 -0.019312678
0003d0 93 40 20 be 5a b8 3f c0 5a c0 3a c0 4b f0 21 bc
       -0.15649633 -2.995627 -2.9179902 -0.00988395
0003e0 2c aa 5c bd 7e 91 48 c0 5c 7b 46 3e f2 f0 6e 3b
       -0.053873226 -3.1338801 0.19382995 0.0036459533
0003f0 55 69 3d be 86 f8 aa 3d 6d d4 26 3e b9 f7 93 bd
       -0.18497212 0.08348183 0.16291972 -0.07224984

encoder.sigma.bias f4 [20]
000000 cd c5 1b c0 31 20 ae bf a9 54 8c bf 85 9f e6 bf
       -2.4339478 -1.3603574 -1.0963336 -1.8017431
000010 bc 12 a8 bf 86 f9 f9 bf a4 b2 92 bf 77 e6 95 bf
       -1.3130717 -1.9529274 -1.1460767 -1.1710957
000020 c4 13 db bf d1 68 74 bf e7 af a0 bf 3c c2 ab bf
       -1.7115407 -0.9547244 -1.2553681 -1.3418651
000030 b4 7c ea bf ea e6 16 c0 fb f7 38 bf 42 67 8e bf
       -1.8319306 -2.3578439 -0.7225339 -1.1125262
000040 f8 88 82 bf cc 86 c8 bf 4a 4c ca bf d1 6d e6 bf
       -1.019805 -1.5666137 -1.5804532 -1.8002263
